data.pth (torch, 11543 bytes, 6 tensors)

l1.weight f4 [8, 139]
000000 29 b9 dc be 65 c1 bd 3e c5 e6 f9 3d a2 81 83 3f
       -0.43110016 0.3706161 0.12202219 1.0273936
000010 72 58 21 bf d7 e4 ab 3e 66 31 35 3f 90 76 84 bf
       -0.6302558 0.33573028 0.707785 -1.0348682
000020 dd 46 21 3f 27 1f b9 be b9 f4 58 3f 99 e6 45 3e
       0.62998754 -0.3615658 0.8474842 0.19326247
000030 be 3a 01 3f 3f 9f 0b 3f 62 19 97 be d1 41 96 3e
       0.5048026 0.54539865 -0.29511553 0.2934709
000040 c0 f0 5b 3f 4f d6 b1 3f 6e dc be 3c 72 02 66 bf
       0.8591423 1.3893527 0.023298468 -0.8984748
000050 26 88 3e bf ac d7 9b 3f a7 a8 7c 3f a4 87 9b 3e
       -0.74426496 1.2175193 0.98694843 0.30376923
000060 ed 5b 77 3f fe 19 1a be 86 62 fe 3e 92 d5 6a 3f
       0.9662464 -0.15048978 0.49684542 0.9173213
000070 b1 43 03 3f bd 90 31 3e fd 9f d8 bd 7b 88 f4 be
       0.51275164 0.1734037 -0.1057739 -0.47760376
000080 f2 2b 8b be 18 39 9b bd 12 db 50 3e c0 a4 19 3f
       -0.27181965 -0.07579249 0.20396069 0.60017014
000090 1e 74 95 3f 14 40 35 bc 56 32 78 be ce 9a 4c be
       1.1676061 -0.011062641 -0.24237952 -0.19980928
0000a0 61 a3 8b be c6 70 1c bf 06 9a dd be 88 28 c2 3f
       -0.27273086 -0.6110958 -0.43281573 1.5168619
0000b0 35 56 14 3f 1a 08 4d bf 5d 4c b9 3e e8 cd de 3d
       0.5794404 -0.80090487 0.36191073 0.10879117
0000c0 5a 4f 3f 3f 26 2b b5 be f5 18 51 3f b9 03 39 3f
       0.74730456 -0.35384482 0.81678706 0.72271305
0000d0 f7 3c 06 3f 5f 84 77 be a7 53 e6 3d cc 54 15 be
       0.52436775 -0.2417159 0.11246424 -0.14583129
0000e0 b2 fa 34 bf 35 e0 51 3f 84 91 1d be 63 54 34 bf
       -0.7069503 0.8198274 -0.15387541 -0.70441264
0000f0 69 31 38 3f 14 36 fd 3e 3f 3c a6 bb 24 ce 5d bf
       0.71950394 0.4945532 -0.0050731 -0.8664267
000100 e8 66 53 bf 5c d8 25 bf 06 a7 4e be 67 e1 6a bf
       -0.825789 -0.64783263 -0.20180902 -0.91750187
000110 62 b5 53 3e d6 7c 14 3f 77 3c 61 be ef 63 35 3d
       0.20674661 0.58002985 -0.21995722 0.044284757
000120 5a b6 fa be b2 db 06 bf 48 aa 14 3d c6 db 97 3f
       -0.48967248 -0.5267898 0.036295205 1.1863945
000130 e0 1c ec 3e 20 8c 5c be 1e 50 20 3f 9e d1 77 be
       0.4611578 -0.21537828 0.6262225 -0.24201056
000140 2c 57 86 3e 7d ce 75 3d 59 9f 4a 3e 97 11 96 be
       0.26238382 0.060011376 0.19787349 -0.29310295
000150 4d 8a 9c 3d 9c 37 ab 3f f1 d4 83 3e ee 9e 86 be
       0.07643566 1.3376346 0.257484 -0.2629313
000160 ec cf e0 be 0c 84 bb 3d 71 2c ac be 38 ca 62 be
       -0.43908632 0.09156045 -0.33627656 -0.22147453
000170 66 0a 0d 3f 2a e2 d6 bd a4 87 ab bd ef 97 b5 3e
       0.5509399 -0.10492356 -0.08375481 0.3546748
000180 47 0b 4a 3f 12 47 37 bf 77 2b 64 bf 28 3c ba be
       0.7892346 -0.7159282 -0.8912882 -0.3637402
000190 9a 85 ad 3d de 52 c0 be 78 a9 f9 3d 61 a0 d3 3e
       0.08472748 -0.37563223 0.12190527 0.41333297
0001a0 28 61 36 bf 5c 41 16 bf 51 c6 65 bc dd a1 ce 3e
       -0.71242 -0.5869348 -0.014024333 0.40357867
0001b0 f6 37 6b bf 2e c9 3b 3f 7a 72 89 be 24 b8 da be
       -0.91882265 0.7335385 -0.2684515 -0.42718613
0001c0 37 b6 5a 3e 74 08 9c be cf f3 0c 3f b8 03 63 3f
       0.21358572 -0.304752 0.5505952 0.8867755
0001d0 27 72 8e 3e 27 8a ec 3e a1 cf c8 3f f2 37 81 bc
       0.27821466 0.46199152 1.5688363 -0.015773747
0001e0 48 6a 85 3f fb 82 a8 3f c4 ce f5 3e 33 7d 24 3f
       1.042306 1.3164972 0.48009312 0.6425354
0001f0 ca b7 38 3e 87 79 54 3f 7a 17 14 3f 98 ea 7d be
       0.1803886 0.82997936 0.5784832 -0.24796522
000200 b0 b3 b9 3d 12 63 59 3f 6c 01 45 bf 86 1e 3e 3f
       0.09067476 0.84916794 -0.76955295 0.74265325
000210 62 05 48 3e 17 84 5b 3f bb 11 de 3d 4d fe 20 3f
       0.19533303 0.8574843 0.108432256 0.6288803
000220 7a fb 9e 3e 23 3d a1 be 3f f2 19 3f 7c 0e 05 3f
       0.31051236 -0.31491956 0.60135263 0.51975226
000230 7e 11 0b 3b 99 e8 34 be 29 84 2a 40 62 22 8b 3e
       0.0021220143 -0.17666854 2.6643164 0.2717467
000240 ca aa a1 3e 63 ce ea be 51 74 00 3f b7 d0 a9 be
       0.31575614 -0.45860586 0.50177485 -0.3316705
000250 0a a4 c6 3e fe a6 22 3f 41 50 b3 be c9 d0 a4 3f
       0.38797027 0.6353606 -0.35022166 1.2876216
000260 f8 81 7f be a6 36 9b 3e 24 5a e1 3e 4c bd 61 be
       -0.24951923 0.3031513 0.44014084 -0.22044867
000270 dd c0 ca be 09 25 5c 3f 51 28 0f 3f 18 26 4a bf
       -0.39600268 0.8599401 0.5592089 -0.78964376
000280 88 48 fc 3e dd 90 93 3f 96 8a bd 3e 4f 34 26 bf
       0.49274087 1.1528584 0.37019795 -0.64923567
000290 18 b4 01 bf 0f 67 50 bf dc 27 36 3f 11 f4 b0 be
       -0.50665426 -0.81407255 0.7115457 -0.34561208
0002a0 48 7c 1b 3f 86 b1 32 bf 81 bf 70 3f e1 11 2b 3f
       0.60736513 -0.6980213 0.9404221 0.66824156
0002b0 36 95 32 bf 41 4a 05 3e 7b 75 8a 3d 6e 57 9e 3d
       -0.6975893 0.13016607 0.06760689 0.0773152
0002c0 f5 ad ca 3e 9d 96 32 3f cd f5 26 3f dd 48 25 3f
       0.39585844 0.6976107 0.6521881 0.64564306
0002d0 c3 65 1b be bc 42 40 be a1 6f 1a 3e b9 b8 8f be
       -0.15175538 -0.18775457 0.15081646 -0.2807062
0002e0 43 36 4a bf f0 ba c6 3e 71 72 21 bf b1 b4 16 bf
       -0.78989047 0.38814497 -0.6306525 -0.58869463
0002f0 f5 89 f0 3e d8 84 13 bf 79 b9 19 bf 5c c9 6a 3f
       0.46980253 -0.5762458 -0.60048634 0.917135
000300 18 fd 0b be 40 2c 39 bd 53 9a 45 be c0 47 6f 3f
       -0.13670766 -0.045208216 -0.19297151 0.93468857
000310 01 6f 2b bf 6f 6f 21 bf f0 46 1f 3e 22 3d 18 3f
       -0.66966254 -0.6306066 0.15554404 0.5946828
000320 a9 09 d3 3f c8 e1 7c bf 89 f1 85 be 3c af 8b bf
       1.6487323 -0.98782015 -0.2616084 -1.0912852
000330 8f 5b 33 bf 0b 95 13 3f b1 68 8f 3e 02 d1 55 3e
       -0.7006158 0.57649297 0.2800956 0.20880511
000340 72 c9 70 3f 0e 3d 25 3e 8a 89 21 bf ed 47 89 3f
       0.9405738 0.16136572 -0.6310049 1.0725075
000350 d7 c7 8f be a2 b4 f5 bd b2 64 83 3d ef fb a2 bd
       -0.28082153 -0.119973436 0.064156905 -0.07958209
000360 c9 c3 3a 3f d3 61 6c 3f 5c 2f d4 be cf 0d 53 3f
       0.72954994 0.9233677 -0.41442382 0.82442945
000370 19 94 ae be 5a 29 f3 be 58 e8 10 3f 73 3d e5 3d
       -0.34097365 -0.47492486 0.5660453 0.11193361
000380 13 82 1c bf 6d eb 2c 3f f4 d2 04 bf ef b2 ff be
       -0.6113598 0.6754673 -0.5188439 -0.49941203
000390 ee f3 9d 3f 8c d8 18 3f 69 00 d4 3e 24 bf 7f 3f
       1.2340066 0.59705424 0.41406563 0.9990103
0003a0 54 b6 2a bf 77 93 5e 3f d9 9d 32 3f 3e 38 a9 3f
       -0.6668446 0.86943763 0.69772106 1.3220289
0003b0 b6 37 16 3e d7 cc 08 3f c2 87 a8 3f b3 21 b2 3e
       0.1466969 0.5343756 1.316643 0.34791335
0003c0 2a 98 29 bf f1 a6 a6 3f 51 48 8f be 18 ce 2d 3e
       -0.6624781 1.3019696 -0.2798486 0.1697315
0003d0 61 d9 45 be cf 0a 8f be 70 e3 c8 3e 9b 76 93 bd
       -0.19321205 -0.27937934 0.3923602 -0.072003566
0003e0 3b 03 ff be a8 69 7d bc e8 c7 57 3f b8 67 79 3e
       -0.49807152 -0.015467085 0.8428941 0.24355972
0003f0 38 d1 7e be 94 67 27 be 61 27 88 3f 6b 2b ba bd
       -0.24884498 -0.16348106 1.0637017 -0.090903126

l1.bias f4 [8]
000000 37 1c b7 3f 58 28 4a 3f 97 95 88 3f d9 82 a3 3f
       1.4305485 0.7896781 1.0670651 1.2774307
000010 c4 e8 8c 3f 5c 77 d8 3f 7d 5d a5 3f 0a 3a cd 3f
       1.1008534 1.6911426 1.2919155 1.6033337

l2.weight f4 [8, 8]
000000 e4 8c 24 3c 3a 95 bb bf 5f 70 67 be eb 92 5b 3f
       0.010043357 -1.4654915 -0.2260146 0.85771054
000010 f9 3d c3 3f 21 61 26 40 1d d9 9d 3f 4a 65 d7 3f
       1.5253288 2.5996783 1.2331883 1.6827786
000020 40 12 f6 3f 8e 49 8a be 1d e2 c7 bf 81 e7 16 40
       1.922432 -0.27009243 -1.5615879 2.3578799
000030 23 3c 16 3e 7e c2 37 bf 44 e4 46 3e 60 6c f1 3e
       0.14671378 -0.71781147 0.19423014 0.47152996
000040 cc 24 bf 3f 36 cd 80 3e ae ad 01 40 35 34 6c 3f
       1.4933105 0.25156564 2.0262256 0.9226716
000050 da 4d bc bf 4c 68 0e 40 34 4e 43 bf b1 09 02 40
       -1.4711258 2.2251158 -0.76291203 2.0318415
000060 58 75 94 3f ea ab 99 3f 8a 41 7f 3f 7b d4 aa bf
       1.159831 1.2005589 0.9970938 -1.3346094
000070 c1 ed 7f 3f 04 a1 9d bf 01 ed 05 40 1c 00 23 3c
       0.9997216 -1.2314763 2.0925906 0.009948757
000080 01 f4 04 bd 4e c1 0e 40 2f fe f0 bf 02 30 14 bf
       -0.032459263 2.2305484 -1.8827571 -0.57885754
000090 19 c5 97 3f 18 47 56 bc 2f ef e3 3f 5a dd 56 3f
       1.1857024 -0.0130784735 1.7807368 0.83931506
0000a0 12 73 e8 be 1d 02 1b bf 62 ff 0c 40 55 d7 01 40
       -0.45400292 -0.605501 2.2030873 2.0287678
0000b0 41 ad 7e bf 3b 0e a0 be eb d6 b6 3f a2 06 c8 3f
       -0.99483114 -0.31260857 1.4284338 1.5627024
0000c0 92 f1 d4 3f 8d f8 b7 3e c8 77 f1 be 29 0b 11 bf
       1.6636221 0.35931817 -0.47161698 -0.56657654
0000d0 ea 35 db 3f 50 e6 0d 40 72 1d 86 bf d5 33 d5 3e
       1.7125828 2.2171822 -1.0477736 0.41641107
0000e0 10 42 2d 3f a4 08 70 3f 07 1e c0 3e 4d 3a 09 3f
       0.6767893 0.93763185 0.3752291 0.53604585
0000f0 f1 6c b9 3f f2 38 ec be 80 27 af bf 19 18 42 3f
       1.4486371 -0.46137196 -1.368393 0.7581802

l2.bias f4 [8]
000000 ad 57 42 3f c0 1c 0f 3f 0f b5 8e 3e 7f 00 30 3f
       0.7591503 0.55903244 0.27872512 0.68750757
000010 fb e3 07 3e 58 3a e3 3e 75 a4 76 3f af 60 a3 be
       0.13270561 0.4438045 0.9634469 -0.319097

l3.weight f4 [64, 8]
000000 08 24 37 3f 21 1b 6e 3e 5d 08 b8 be 08 7f d2 bf
       0.71539354 0.23252536 -0.3594388 -1.6445017
000010 03 a6 76 bd 83 68 a0 be 29 6f 0c 3e 4a 19 9e bf
       -0.060216915 -0.31329736 0.13714279 -1.2351468
000020 8f 91 49 3f b2 22 38 bf ab 27 18 bd 6a 31 fb be
       0.7873773 -0.7192794 -0.037147205 -0.49061137
000030 48 87 2b c0 55 25 76 bf 06 39 13 3f d4 fb 8a 3e
       -2.680132 -0.96150714 0.57508886 0.27145255
000040 83 30 2a 3f e7 d4 eb 3e 54 89 4c 3d fe 26 3e c0
       0.66480273 0.4606087 0.049935654 -2.97113
000050 a9 44 e5 bf 4c 21 90 bf d1 3d 29 3f bb 32 ec bc
       -1.7911578 -1.1260161 0.6610995 -0.028832784
000060 e0 d1 8e be 72 5a d2 bd 73 b3 2b 3f c9 da 10 c0
       -0.27894497 -0.10271157 0.6707069 -2.2633536
000070 0f 67 0a c0 57 6c 06 be b2 26 c5 3e 2c 74 b6 3e
       -2.1625402 -0.13127266 0.38506085 0.35635507
000080 e2 40 ff 3e ad 8e a6 bf db 26 60 be 1c 1b 08 3e
       0.4985419 -1.3012291 -0.21889822 0.13291591
000090 7f 81 86 bf 34 c0 ec 3e 60 a8 d8 bf df a1 13 c0
       -1.0508269 0.4624039 -1.6926384 -2.3067548
0000a0 23 9e 36 3f f4 39 25 be 43 8a 16 3f 82 2f 5e c0
       0.7133505 -0.16135389 0.5880472 -3.4716496
0000b0 0b 73 50 c0 57 76 83 3e 9b 4c 1a be e4 c4 00 c0
       -3.2570217 0.25676224 -0.15068285 -2.0120173
0000c0 e5 51 02 3f 44 ab 1c be 3a 11 1b 3f 53 df 27 bf
       0.5090621 -0.15299708 0.6057316 -0.6557514
0000d0 21 25 f4 bf f0 82 57 be bd 43 da bd 57 0a 22 c0
       -1.9073831 -0.21046042 -0.10657451 -2.531881
0000e0 2a 5e f1 bd 21 27 09 3f 73 6c 6f 3d bd e2 b7 3d
       -0.117855385 0.5357533 0.058453035 0.08978794
0000f0 b9 3c 66 c0 36 83 82 be e5 d6 b6 3e 1d 9d f4 be
       -3.5974562 -0.2549073 0.35710827 -0.47776118
000100 56 a5 04 3f 62 a2 63 be e7 ba 43 bf a1 5a a2 be
       0.5181478 -0.22229913 -0.76457065 -0.3170977
000110 79 f6 71 3d d3 e4 3d c0 27 d7 08 3f da f4 17 bf
       0.059072945 -2.9670913 0.53453296 -0.5935799
000120 ed 76 91 bf 01 f1 92 bf 7c 52 99 3d 63 d8 99 3e
       -1.1364418 -1.1479799 0.07486436 0.30047902
000130 cb 35 65 be 09 31 bc 3d f1 fa b1 bf 0c 79 84 bf
       -0.22383802 0.0918904 -1.3904706 -1.034944
000140 1a b0 06 be cc eb 99 3e 09 a8 6c bf 45 c2 97 3e
       -0.13153115 0.3006271 -0.924439 0.29640403
000150 fd af 7f 3e b9 38 7c be 28 9e bb bf 76 05 71 c0
       0.24969478 -0.24631013 -1.465764 -3.7659583
000160 26 f8 91 be 8c 94 c6 3e 0c 0b 0d c0 f2 21 95 3e
       -0.28509635 0.38785207 -2.2037992 0.2912746
000170 3c a7 ef 3e bb 1d 35 bf 06 85 06 bf de 8a 2c c0
       0.46807277 -0.7074849 -0.5254673 -2.6959758
000180 49 24 fb 3e d1 23 49 bf 1b 0f b3 bf 32 96 ab 3e
       0.4905112 -0.78570276 -1.3988985 0.33513027
000190 80 3c 9a 3d 45 46 8f bf 91 4a fd bd 67 87 86 bf
       0.07531071 -1.119332 -0.12367738 -1.0510072
0001a0 06 84 0c be 64 c1 56 be 2d 22 0e c0 68 dc f5 3e
       -0.13722238 -0.2097221 -2.220836 0.4801972
0001b0 63 66 81 3e 76 1d 08 c0 74 7a 1f 3e 06 2d 83 bf
       0.25273427 -2.1267982 0.15574056 -1.0248115
0001c0 a7 de 44 be 85 ba e7 bd 46 fb 11 3e 76 c3 6e 3c
       -0.1922556 -0.11314873 0.1425601 0.014572969
0001d0 61 23 84 bf 20 80 81 bf 90 a0 1c 3e 2d 70 44 3e
       -1.0323297 -1.0117226 0.15295625 0.19183417
0001e0 9e b3 f4 be 56 54 35 3e 0b ec e0 be 3e 57 6e 3e
       -0.47793287 0.17707953 -0.43930086 0.23275468
0001f0 46 41 c2 be 22 df d9 bf cf 83 95 3e 29 46 33 be
       -0.37940425 -1.702122 0.29202124 -0.17507233
000200 f4 88 46 be 6a ec e7 3e 15 88 68 bb e2 f3 58 bf
       -0.19388181 0.45297557 -0.0035481502 -0.84747136
000210 0b ba a0 bf 93 5a f5 be 43 56 49 3e bb b9 36 3e
       -1.2556776 -0.47920665 0.19661812 0.17844288
000220 ca 29 cf bc bc 16 0c 3f 1c 4a da 3c 0c 87 a8 be
       -0.025288481 0.5472219 0.026646666 -0.32915533
000230 03 11 9e be 0f 8d c9 bf 24 c9 58 be 88 b9 b3 bd
       -0.30872354 -1.5746173 -0.21170479 -0.08775622
000240 03 15 d2 bc 96 37 38 3e d6 39 a2 bf 43 79 8a be
       -0.025644785 0.17989954 -1.26739 -0.2704564
000250 fa 49 31 3c c8 b8 62 bf 3b 0a 7e 3e 02 93 d7 bd
       0.01082086 -0.88563204 0.2480859 -0.105260864
000260 a3 e7 ca 3e cb b8 8a bd 4d d1 30 c0 9a ab 8b be
       0.3962985 -0.06773528 -2.7627747 -0.2727936
000270 1b e7 a5 3e 9a cb 0c c0 82 e2 76 3d 4f 0f a5 bb
       0.32402882 -2.1999269 0.06027461 -0.0050372253
000280 00 fc 58 bd aa 3d a3 bf 5e 9d 99 bc 7f 36 17 3d
       -0.0529747 -1.2753193 -0.018751796 0.036917206
000290 9b 88 a6 be 8d a5 e0 be 2d a9 2d 3d 1b 0b f6 be
       -0.32526097 -0.43876305 0.042397667 -0.48055348
0002a0 45 63 63 be 88 fb 30 bf 11 71 eb be 97 9a 31 3e
       -0.22205837 -0.69133806 -0.459847 0.17344128
0002b0 f0 87 c3 3d 13 f2 92 bf b5 19 96 be a6 c1 fd 3d
       0.095474124 -1.1480125 -0.29316488 0.12390451
0002c0 f9 ed d0 3e 44 0d f3 be 05 6b aa bf 45 07 88 bd
       0.4080656 -0.47471058 -1.331391 -0.066420116
0002d0 14 0a 73 bd e8 e6 bd 3e b8 1a 9d bf 47 b8 17 c0
       -0.059335783 0.3709023 -1.2273779 -2.3706224
0002e0 0a 13 c9 3e 80 05 25 be 7c 6c 21 c0 62 a9 b1 3e
       0.39272338 -0.1611538 -2.5222464 0.3469954
0002f0 c2 c3 43 3c 78 21 8b be aa 15 2a bf 23 04 ed bf
       0.011948528 -0.27173972 -0.66439307 -1.8516887
000300 69 da 29 3e 7a 5e b9 bf 19 82 d6 3e b4 7e 02 bf
       0.16587223 -1.4481957 0.41896132 -0.50974584
000310 b2 59 1b c0 ec 5e e6 3e 00 69 b2 bf 36 12 ab bf
       -2.4273496 0.44994295 -1.3938293 -1.3364933
000320 45 fe 5f be 23 7a 9d bf 06 68 66 3e e4 87 b4 3e
       -0.2187434 -1.2302898 0.2250062 0.35259926
000330 ad 74 f7 bf 76 8f da 3d 6e b9 e3 be 37 06 3e bf
       -1.9332482 0.10671894 -0.4447741 -0.74228233
000340 a3 ef 0f bf f4 08 67 3e 91 9f be bf 82 f9 3c 3d
       -0.5622503 0.22562009 -1.4892446 0.046136387
000350 d9 90 6f 3e 35 d6 32 c0 15 84 f2 bd ac 4c b5 3e
       0.23395099 -2.7943242 -0.11841599 0.35410058
000360 21 7c fc bf 80 ca e5 be f4 fc 1a c0 c4 35 19 3f
       -1.9725381 -0.44881058 -2.421689 0.59847665
000370 cc 94 1d 3e 23 70 12 c0 bb ba 7a 3e 1f 62 86 3d
       0.15388793 -2.2880943 0.24485295 0.06561684
000380 03 99 e2 bf b5 79 2f 3e 92 69 a4 3e 24 9a 64 be
       -1.7702945 0.17136271 0.32111794 -0.22324425
000390 9b 1b a7 be 66 b4 9b bf 10 8a 94 3e 61 23 20 3e
       -0.3263825 -1.2164428 0.29011583 0.15638496
0003a0 fb 16 19 c0 1d ea a0 bb 51 4f bc be 1c a0 7a be
       -2.3920276 -0.004910721 -0.36779264 -0.2447514
0003b0 c5 38 c7 3e 38 75 2d c0 ec 5b ee 3e 77 d1 1b 3d
       0.389105 -2.7102795 0.46554506 0.038041558
0003c0 1e 04 ee bf 34 8e f4 bf 90 16 e6 be e4 8a ba 3e
       -1.8595006 -1.9105897 -0.4493909 0.3643409
0003d0 27 60 02 3e 82 0a 77 be 23 ec 35 be 30 69 75 be
       0.12731992 -0.24125102 -0.1776586 -0.23965907
0003e0 7a 58 78 be 90 36 a9 be b5 a4 33 3e 2e d9 c3 be
       -0.24252501 -0.3304944 0.175433 -0.38251632
0003f0 00 73 08 bf 06 be 3e be 5d bc 82 bf 3c c4 4c 3e
       -0.53300476 -0.18627176 -1.0213734 0.19996732

l3.bias f4 [64]
000000 5f 18 56 be 4b 13 d3 3b b7 45 23 bd 4f ae bd be
       -0.20907734 0.006441509 -0.039861407 -0.3704705
000010 85 c8 20 be 38 ac ec 3e 6c 19 ad 3e 6f 9c 1e 3f
       -0.15701492 0.46225142 0.33808458 0.6195745
000020 8a d8 2a 3f 87 21 ab 3e a1 b7 7e be 5e 48 b4 3c
       0.6673666 0.33424017 -0.24874736 0.022007164
000030 ab f3 00 3e 44 04 60 be cd 7e b5 bc 97 b4 1b be
       0.12592952 -0.21876627 -0.02215519 -0.15205608
000040 94 2f 18 3c 95 78 84 be 1d ef 31 be ec 81 f9 be
       0.009288687 -0.25873247 -0.1737637 -0.48731935
000050 05 22 cc be 9c 2b d4 be ed 46 90 be ac e0 e7 be
       -0.39869705 -0.4143952 -0.28179112 -0.452886
000060 0a 5a e2 3d 3b 33 90 bd e6 ef 27 3e 0c 94 ae bd
       0.1105233 -0.070410214 0.16400108 -0.085243315
000070 73 61 4d be 4c 8c 52 3e 00 6f df 3e e8 95 0c be
       -0.20056705 0.20561332 0.43639374 -0.1372906
000080 9f f2 f9 be 9a e3 92 be a3 ba 1c bf 58 96 32 bf
       -0.48817918 -0.2868927 -0.61222285 -0.69760656
000090 18 68 f1 be f7 7f 04 be 98 8e de bb 73 36 0b 3e
       -0.4714973 -0.1293944 -0.006791901 0.1359499
0000a0 82 29 2d 3e 4f 6a b9 be 1d 6d 0e bf 42 20 d6 be
       0.16910365 -0.3621392 -0.55635244 -0.41821486
0000b0 3b bb 2f 3e 0c 01 73 3c a8 da 70 bd a1 07 1b bc
       0.17161267 0.014831793 -0.058802277 -0.009462268
0000c0 cc 9f 12 be 9d b3 e3 3d b4 b5 85 3e b3 86 6e be
       -0.1431877 0.11118243 0.2611519 -0.23293571
0000d0 83 0a ad 3e 95 af b3 bd 81 77 66 bc 04 22 2c 3e
       0.33797082 -0.08773724 -0.014066578 0.16809851
0000e0 91 a5 08 bd d7 f7 76 3e ee fb 30 3d 15 62 54 3d
       -0.03336102 0.24117981 0.04320901 0.05185135
0000f0 b5 93 05 3d 1a bf 0a bd 1d fc cf 3e 2d ce e8 3e
       0.032611568 -0.033873655 0.40622035 0.454698
