data.pth (torch, 4951 bytes, 6 tensors)

l1.weight f4 [8, 51]
0.5927936 0.25283518 -0.41405833 -0.38599053 0.3442064 -0.10878275 -0.12319633 -0.3377253
0.6251085 0.5298548 -0.5504746 -0.28683138 -0.02176903 -0.03964194 0.18922773 -0.21483181
0.60739404 -0.019262701 -0.52883345 0.49285948 -0.5591344 -0.44488 -0.40310732 -0.056892995
0.62573403 -0.09273709 0.0068881772 0.1747511 0.23105055 -0.1466155 0.22295958 0.6073298
-0.17809646 1.0728291 0.030370515 -0.6071625 -0.48500815 0.6927649 1.1788316 0.49993777
0.74583656 0.14013699 0.31788975 0.14323176 0.71465534 0.34965926 -0.022176648 0.10210422
-0.11977477 -0.78995067 0.50831574 0.55443984 0.51941097 0.11815193 0.106649704 0.042362534
0.011415931 -0.025417618 -0.1852337 0.7867183 -0.009806285 -0.4966127 -0.122367576 -0.13472371
0.3260506 0.51144814 -0.004115276 0.7556371 0.035840187 -0.20626153 0.4283718 -0.24766819
-0.25627166 -0.31873775 0.034205653 -0.53386354 -0.057232734 0.45023257 0.44811767 0.20790452
-0.20758079 0.25596115 -0.09945828 0.010097167 0.022641782 0.025625063 -0.6266591 -0.6054265
-0.32908493 -0.52298045 0.101391256 -0.1821456 0.3914011 -0.010477493 0.5618392 0.9504182
0.5247504 0.001336316 -0.09267157 -0.06877431 0.57150626 0.43054476 -0.15611447 0.057477616
0.24577048 0.41029367 0.039899122 0.50631547 -0.28854105 -0.39299577 0.9610096 0.018356346
0.6799684 -0.58945775 0.3903638 0.08627175 0.07353172 -0.09173016 1.0656826 0.010934127
-0.74705565 -0.3920984 -0.7468739 -0.7468941 -0.35384744 0.44235632 -0.05388092 -0.22290334
0.026562976 0.07721697 0.74063635 0.24860173 -0.10993699 -0.018600505 0.093574494 -0.3790389
0.27624112 0.6151268 0.559468 -0.36757174 -0.74686426 0.66150683 0.041143175 0.1789821
0.10300881 -0.003426629 -0.74691206 -0.19891286 -0.23531055 0.35431385 -0.045097496 -0.08081557
-4.1066214e-06 -0.3093512 0.5569895 1.0578337 1.0063233 -0.11733115 0.57681346 -0.23211682
-0.32639393 -0.55061096 -0.007483609 0.36324903 -0.27812123 0.08970082 0.47467628 0.5623987
-0.27251455 -0.55074316 0.01395516 -0.53672653 -0.12054972 -0.52885944 -0.47773808 -0.2464588
0.06304508 -0.840682 -0.14096175 0.70046246 0.33740342 -0.3026452 0.08644034 -0.21353213
0.28996652 0.6163941 -0.11036105 0.016264984 0.33098066 0.3944542 -0.18642724 -0.25675663
-0.21663556 0.022574306 0.75794005 -0.08798924 0.60614544 -0.5847019 -0.12088486 -0.1775331
0.36077663 0.5295484 0.8546644 0.033891812 0.00048546237 0.5848657 -0.28754804 -0.2784051
0.086469546 0.2951992 -0.14420065 -0.38266706 0.83343726 -0.034516938 0.91776067 -0.5895138
0.36058047 0.4522015 0.4358817 -0.01651769 0.72213465 0.18898603 -0.6060088 0.21459228
-0.6059914 -0.6060241 -0.40992627 0.32896656 -0.6161867 -0.278459 0.5370181 0.34248418
0.60631025 0.34293726 0.08854403 0.012354861 -0.19702116 -0.269621 0.37298712 0.836801
0.755066 -0.19970872 -0.49242938 0.5529593 -0.0015732455 0.61515796 -0.07797578 0.7117947
0.17790523 0.28280285 -0.18326516 -0.099069215 -0.30594364 -0.60600334 0.18664524 0.55302334
00000000: 52c1 173f 9d73 813e 74ff d3be 8da0 c5be
00000010: d23b b03e 7ec9 debd 5c4e fcbd 55ea acbe
00000020: 1c07 203f 90a4 073f e7eb 0cbf 90db 92be
00000030: f754 b2bc 965f 22bd eac4 413e dffc 5bbe
00000040: 2d7e 1b3f d0cc 9dbc a161 07bf 1458 fc3e
00000050: 6f23 0fbf 50c7 e3be 1564 cebe a108 69bd
00000060: 1b30 203f f2ec bdbd 38b6 e13b f4f1 323e
00000070: 8498 6c3e 6022 16be 844f 643e f779 1b3f
00000080: eb5e 36be 7752 893f 96cb f83c 006f 1bbf
00000090: fd52 f8be 0a59 313f f4e3 963f d8f7 ff3e
000000a0: 25ef 3e3f 1280 0f3e 72c2 a23e 59ab 123e
000000b0: a7f3 363f 8a06 b33e cdab b5bc 041c d13d
000000c0: 7a4c f5bd 353a 4abf fb20 023f c5ef 0d3f
000000d0: 1ef8 043f a4f9 f13d 296b da3d 5684 2d3d
000000e0: e309 3b3c 9c38 d0bc e7ad 3dbe 5f66 493f
000000f0: 8aaa 20bc 0544 febe da9b fabd 03f5 09be
00000100: 1bf0 a63e 44ee 023f 70d9 86bb 6f71 413f
00000110: 29cd 123d 3936 53be 8c53 db3e bb9c 7dbe
00000120: 0a36 83be 9831 a3be 3a1b 0c3d 48ab 08bf
00000130: df6c 6abd e284 e63e ae6f e53e ece4 543e
00000140: 0f90 54be 570d 833e c8b0 cbbd 976e 253c
00000150: 427b b93c a7eb d13c bb6c 20bf 3bfd 1abf
00000160: d27d a8be 0ce2 05bf 38a6 cf3d 6084 3abe
00000170: ba65 c83e caa9 2bbc b2d4 0f3f 9b4e 733f
00000180: 0b56 063f 5327 af3a 98ca bdbd 8cd9 8cbd
00000190: 3c4e 123f 5d70 dc3e 79dc 1fbe a66d 6b3d
000001a0: 42ab 7b3e 0312 d23e 436d 233d e49d 013f
000001b0: a7bb 93be be36 c9be ba04 763f 0c60 963c
000001c0: 6912 2e3f b4e6 16bf c4dd c73e 3eaf b03d
000001d0: cc97 963d 06dd bbbd 4a68 883f 0d25 333c
000001e0: 0a3f 3fbf 1fc1 c8be 2133 3fbf 7434 3fbf
000001f0: 7e2b b5be 877c e23e 3db2 5cbd c640 64be
00000200: 999a d93c ee23 9e3d 589a 3d3f 7491 7e3e
00000210: a526 e1bd 1660 98bc fca3 bf3d 6311 c2be
00000220: 7a6f 8d3e f378 1d3f 4b39 0f3f 5d32 bcbe
00000230: 7f32 3fbf 8358 293f bf85 283d 1547 373e
00000240: 48f6 d23d 4b91 60bb a135 3fbf d0af 4bbe
00000250: 40f5 70be a068 b53e 27b8 38bd a282 a5bd
00000260: 9ccb 89b6 4863 9ebe dd96 0e3f 1867 873f
00000270: 34cf 803f 504b f0bd 0caa 133f 08b0 6dbe
00000280: 1b1d a7be d7f4 0cbf 1039 f5bb c7fb b93e
00000290: e865 8ebe 10b5 b73d c508 f33e 5cf9 0f3f
000002a0: 0787 8bbe 81fd 0cbf 2fa4 643c e966 09bf
000002b0: c6e2 f6bd 5563 07bf 169a f4be b25f 7cbe
000002c0: c71d 813d f036 57bf 4758 10be 8251 333f
000002d0: 24c0 ac3e 50f4 9abe a207 b13d 2ba8 5abe
000002e0: 7e76 943e 01cc 1d3f f904 e2bd 253e 853c
000002f0: 4c76 a93e e7f5 c93e c8e6 3ebe 9b75 83be
00000300: b6d5 5dbe c0ed b83c 5c08 423f b433 b4bd
00000310: 592c 1b3f 06af 15bf 7b92 f7bd 3dcb 35be
00000320: b7b7 b83e 7c90 073f 49cb 5a3f 24d2 0a3d
00000330: a885 fe39 c2b9 153f 7f39 93be 1d8b 8ebe
00000340: f216 b13d 5924 973e 56a9 13be f0ec c3be
00000350: 255c 553f a261 0dbd 5df2 6a3f 60ea 16bf
00000360: 019e b83e f486 e73e e32b df3e 1b50 87bc
00000370: d1dd 383f 8e85 413e 6523 1bbf 14be 5b3e
00000380: 4122 1bbf 6524 1bbf dbe1 d1be 4e6e a83e
00000390: 69be 1dbf 2e92 8ebe 057a 093f 165a af3e
000003a0: 2637 1b3f 7995 af3e 9356 b53d 0b6c 4a3c
000003b0: eabf 49be c40b 8abe 2bf8 be3e 9738 563f
000003c0: 014c 413f 7180 4cbe b41f fcbe be8e 0d3f
000003d0: 5c35 ceba fe7a 1d3f c4b1 9fbd 2d38 363f
000003e0: ca2c 363e 89cb 903e dda9 3bbe cde4 cabd
000003f0: a5a4 9cbe 0923 1bbf ee1f 3f3e f092 0d3f

l1.bias f4 [8]
0.8208132 0.63167876 0.74686795 0.5506085 0.6060221 0.44062188 0.8750141 0.8662749
00000000: d020 523f b3b5 213f bd32 3f3f aef4 0c3f
00000010: 4424 1b3f 3199 e13e ed00 603f 31c4 5d3f

l2.weight f4 [8, 8]
0.043616164 0.4488314 0.65305936 -0.3540191 1.6942414 1.3535712 0.01102324 0.39944562
-0.33665347 0.049607426 -0.18883882 -0.27983442 -0.34855452 0.21597496 0.16697928 -0.10137514
-0.07729863 1.2739394 0.71742684 0.45157358 -0.52962786 -1.1270733 -0.37686896 0.16753891
1.6978449 0.57321984 0.5201397 -1.5354612 0.17529246 0.08622604 -0.97818303 0.503813
-0.48447433 1.5485178 -0.95662314 -0.38064992 -0.36471885 0.9158023 1.1724974 -0.024855847
-0.81564885 0.41149133 1.4767098 1.4193876 1.0538348 -0.458828 0.5881666 1.0883067
1.0164454 0.73871297 -1.2829492 0.31445155 0.21256877 1.3038538 -1.1704817 1.4227642
0.77238446 -1.1636227 1.025395 -1.3131799 0.09321812 -1.0845339 1.7039027 0.9608589
00000000: dda6 323d 3bcd e53e e62e 273f fe41 b5be
00000010: e7dc d83f d241 ad3f d29a 343c 2384 cc3e
00000020: d85d acbe 2831 4b3d f75e 41be 7546 8fbe
00000030: bd75 b2be 8a28 5d3e 9efc 2a3e c59d cfbd
00000040: be4e 9ebd 7210 a33f 49a9 373f a734 e73e
00000050: b195 07bf f043 90bf f8f4 c0be 528f 2b3e
00000060: fb52 d93f 89be 123f e027 053f fe89 c4bf
00000070: de7f 333e 4797 b03d 346a 7abf e4f9 003f
00000080: 050d f8be d535 c63f 41e5 74bf 8ce4 c2be
00000090: 6ebc babe 0572 6a3f 6514 963f 7d9e cbbc
000000a0: 5dce 50bf feae d23e d404 bd3f 7eae b53f
000000b0: 0fe4 863f 81eb eabe 1692 163f a24d 8b3f
000000c0: e21a 823f 4b1c 3d3f ae37 a4bf cbff a03e
000000d0: a1ab 593e aee4 a63f 58d2 95bf 231d b63f
000000e0: fdba 453f 97f1 94bf 2540 833f 4716 a8bf
000000f0: 24e9 be3d 02d2 8abf 7c19 da3f d9fa 753f

l2.bias f4 [8]
-0.6040031 -0.21027207 0.104561895 0.6593057 0.23878601 -0.11313713 0.06662652 1.0461051
00000000: f29f 1abf 9051 57be 8c24 d63d 42c8 283f
00000010: 5284 743e 71b4 e7bd 7c73 883d c6e6 853f

l3.weight f4 [8, 8]
0.722498 0.20561717 -1.4576828 -1.6636342 -1.3198866 0.39622465 -1.4006557 0.27889678
-1.4813193 0.26930645 -1.3453999 0.51598644 -1.3994076 -1.7736727 -0.52696484 0.8494516
-1.4961668 0.018513596 1.0081943 -1.2405423 -0.034757923 0.9624614 -0.50808895 -1.1455768
-0.64586735 0.05453003 -1.3650886 0.33323342 -1.5627003 -1.1394308 0.9608489 -0.13710134
0.30565852 -0.017297119 -0.35242906 -0.5798199 -0.3269422 0.06802505 0.4091492 -1.335173
0.120444655 -0.33560362 0.48781365 0.3793159 -1.6052812 0.014537234 -0.41342884 -0.30064127
-1.0346504 -0.21652128 -0.80187446 -1.7046362 1.1674752 -0.53107584 -1.2100165 0.8272067
0.38740948 -0.29170164 -1.3539851 0.15790932 0.66937953 -1.4349521 0.59860617 -1.6336943
00000000: a1f5 383f 4f8d 523e 5a95 babf f7f1 d4bf
00000010: 0bf2 a8bf f5dd ca3e b048 b3bf 8fcb 8e3e
00000020: df9b bdbf 89e2 893e 1036 acbf b017 043f
00000030: ca1f b3bf b507 e3bf 2be7 06bf a975 593f
00000040: 6582 bfbf d3a9 973c 830c 813f 17ca 9ebf
00000050: 535e 0ebd df63 763f 1e12 02bf 43a2 92bf
00000060: 9057 25bf e15a 5f3d 39bb aebf 929d aa3e
00000070: 9006 c8bf ded8 91bf 32fa 753f 4b64 0cbe
00000080: 467f 9c3e b0b2 8dbc 9571 b4be 146f 14bf
00000090: f864 a7be b850 8b3d 017c d13e f3e6 aabf
000000a0: b0ab f63d 3dd4 abbe b6c2 f93e b235 c23e
000000b0: db79 cdbf 942d 6e3c f2ac d3be a7ed 99be
000000c0: 6d6f 84bf c1b7 5dbe a547 4dbf 8531 dabf
000000d0: d46f 953f 96f4 07bf d2e1 9abf d1c3 533f
000000e0: 895a c63e eb59 95be 624f adbf fbb2 213e
000000f0: 755c 2b3f 83ac b7bf 413e 193f e51c d1bf

l3.bias f4 [8]
-0.26651576 0.5536641 0.86964875 -0.08143892 -0.54288685 -0.53552496 0.46656585 -0.27165523
00000000: c174 88be eebc 0d3f 4da1 5e3f 73c9 a6bd
00000010: a2fa 0abf 2a18 09bf b8e1 ee3e 6516 8bbe
