data.pth (torch, 10583 bytes, 6 tensors)

l1.weight f4 [8, 123]
-0.11359649 -0.7038093 -0.30600035 1.95133 -0.4267353 0.9121841 -0.29384425 0.7290698
0.1676721 0.018348338 -0.47509196 -0.1910033 0.73574245 -0.10445709 -0.46705467 0.047046028
0.9398363 0.52319574 0.16835491 -0.88681686 0.95791095 -0.12473854 0.01342657 -0.08232001
-0.19163537 0.11743787 0.44023 0.31820497 -0.20433114 0.3926946 0.40640214 0.8654655
-0.69811964 -0.19671796 1.2347386 -0.22531335 0.12353928 0.4827421 -0.8492917 -0.32939073
0.23270391 0.9303831 0.32821843 -0.520109 -0.093678206 -0.5201942 -0.52020156 -0.3655128
-0.044678807 -0.43779126 -0.15030056 0.64100266 -0.16885991 0.17710401 -0.51671076 1.5253205
0.039115153 0.21543267 0.79198676 0.054407276 -0.21034034 0.100335196 -0.36837414 0.07254154
0.31830612 -0.42983863 0.4771888 0.26527432 0.8351307 -0.19389741 -0.049315013 -0.3038355
0.18841831 0.71566594 -0.29676446 0.64786935 -0.5180587 0.21793817 0.3067378 0.8103861
-0.3621354 0.30734646 0.8913366 0.41528168 0.5114618 -0.52063227 -0.7133659 -0.053899296
0.24586962 0.29976425 0.4463908 0.058952603 0.24111474 0.87628925 0.57177234 0.7363291
-0.06608134 -0.81160194 -0.59323454 1.1175691 -0.15275216 0.72685224 -0.69116247 -0.38260093
-0.17551477 0.43702075 0.045460273 0.08483919 0.5222511 -0.2930249 0.51749766 -0.33069953
-0.27931115 0.19791064 -0.4304405 0.9221648 -0.45590407 0.947245 -0.30948627 0.8110966
0.2969168 0.4564791 -0.77155495 0.72060764 0.61814255 -0.38579288 -1.1149833 0.5000639
0.58782595 -0.9098476 0.22758591 0.5210838 -0.028079163 -0.2357331 0.47869074 0.20987988
0.5217108 -0.091323905 0.06360582 -0.6418867 0.09457666 -1.0206629 -0.6043133 0.5742434
0.7121721 0.22078452 0.2395329 0.72194463 0.5938873 -0.32596424 0.70521027 -0.39893705
-0.3453957 0.31444335 0.79541653 0.42300674 -0.33425644 -0.25769675 -0.33173877 0.33049923
-0.73219275 -0.55822957 0.80989355 -1.0124825 0.7654244 -0.37808695 1.0241492 0.6103986
1.1159364 1.0659719 0.60002863 0.6331621 1.2049692 -0.5335497 1.1206149 1.0697877
0.58593905 -0.83097726 -0.1418695 0.7109053 0.43767136 0.25963503 -0.5978486 -0.38142934
-1.1257544 0.63732225 0.55775344 -0.29546586 -0.6361573 -0.6750325 0.7372771 0.94672775
-0.40920871 0.86808956 1.1416053 0.37877715 -0.43565038 -0.3837424 0.958093 -0.8165184
0.5253585 0.32267058 0.2005311 0.7475761 -0.23479016 -0.647862 0.59567475 0.1639293
-1.0114962 0.55209154 -0.7978873 0.44893074 0.80914474 0.5526094 0.26980636 0.46126387
0.84529394 -0.117021225 0.64543664 0.61813277 1.2727109 0.9072371 0.10188925 0.55947727
-0.28107187 0.6277458 0.7341454 1.5746152 -0.30560234 0.019039156 -0.09750806 0.22312726
-0.3719311 -0.06041862 0.76481694 -0.31836364 0.5125591 1.1568025 -0.67289 0.6051809
0.28362024 -0.5066304 1.0162759 0.31497276 -0.2505032 1.0226948 -0.71855116 0.36298257
0.6426321 -0.000841117 -0.5157254 0.59107333 1.3932201 -0.25510234 0.093953565 0.69052416
00000000: 47a5 e8bd d92c 34bf 14ac 9cbe 2ec5 f93f
00000010: 0d7d dabe e684 693f c172 96be 52a4 3a3f
00000020: 3cb2 2b3e 414f 963c 413f f3be 5e96 43be
00000030: 9e59 3c3f 99ed d5bd ca21 efbe 56b3 403d
00000040: 1d99 703f 28f0 053f 3b65 2c3e 6e06 63bf
00000050: a739 753f eb76 ffbd 1efb 5b3c 6597 a8bd
00000060: 103c 44be 4483 f03d d465 e13e c3eb a23e
00000070: 2f3c 51be 440f c93e f113 d03e 268f 5d3f
00000080: f8b7 32bf 6f70 49be ea0b 9e3f 8bb8 66be
00000090: 2902 fd3d f929 f73e 2e6b 59bf e7a5 a8be
000000a0: ef49 6e3e 962d 6e3f 3f0c a83e dd25 05bf
000000b0: 5cda bfbd 722b 05bf ee2b 05bf 7e24 bbbe
000000c0: 2001 37bd 2d26 e0be 64e8 19be c018 243f
000000d0: 9de9 2cbe c15a 353e 2847 04bf b43d c33f
000000e0: 3637 203d 629a 5c3e a5bf 4a3f 2ada 5e3d
000000f0: 7563 57be 8a7c cd3d 899b bcbe a990 943d
00000100: 05f9 a23e cf13 dcbe 1752 f43e 09d2 873e
00000110: 20cb 553f 0b8d 46be 8afe 49bd 5490 9bbe
00000120: bbf0 403e e235 373f 83f1 97be c4da 253f
00000130: 7f9f 04bf 2f2b 5f3e bd0c 9d3e 7775 4f3f
00000140: d069 b9be 845c 9d3e a32e 643f cd9f d43e
00000150: 29ef 023f 2848 05bf 269f 36bf 82c5 5cbd
00000160: 3fc5 7b3e b37a 993e 568d e43e 4978 713d
00000170: c8e6 763e 7e54 603f ac5f 123f 1080 3c3f
00000180: a755 87bd 25c5 4fbf 38de 17bf 810c 8f3f
00000190: 106b 1cbe fd12 3a3f 06f0 30bf 45e4 c3be
000001a0: 25ba 33be 2fc1 df3e 8d34 3a3d 2bc0 ad3d
000001b0: 40b2 053f 5c07 96be ba7a 043f 7351 a9be
000001c0: df01 8fbe 16a9 4a3e b262 dcbe fe12 6c3f
000001d0: 426c e9be a67e 723f fc74 9ebe 07a4 4f3f
000001e0: 7b05 983e a1b7 e93e a084 45bf be79 383f
000001f0: 973e 1e3f a586 c5be c6b7 8ebf 3004 003f
00000200: c37b 163f c6eb 68bf 480c 693e bf65 053f
00000210: 4606 e6bc 0564 71be f416 f53e c0ea 563e
00000220: d78e 053f 0708 bbbd c543 823d b052 24bf
00000230: 68b1 c13d 15a5 82bf 47b4 1abf 9e01 133f
00000240: e950 363f 5615 623e 1d48 753e 5dd1 383f
00000250: 0009 183f c9e4 a6be a988 343f 7a41 ccbe
00000260: b5d7 b0be b8fe a03e 6ba0 4b3f 5794 d83e
00000270: a923 abbe d4f0 83be aad9 a9be 3237 a93e
00000280: fc70 3bbf 22e8 0ebf 2f55 4f3f 0799 81bf
00000290: daf2 433f 9d94 c1be 5217 833f 1543 1c3f
000002a0: 01d7 8e3f c471 883f 7a9b 193f e916 223f
000002b0: 6e3c 9a3f b796 08bf 4f70 8f3f ceee 883f
000002c0: 1a00 163f edba 54bf 3d46 11be e4fd 353f
000002d0: 7616 e03e e2ee 843e 9b0c 19bf b54a c3be
000002e0: b818 90bf 8d27 233f eec8 0e3f 4d47 97be
000002f0: 34db 22bf eece 2cbf 31be 3c3f c05c 723f
00000300: ce83 d1be 1e3b 5e3f 1f20 923f 14ef c13e
00000310: 910d dfbe e279 c4be 9545 753f 5a07 51bf
00000320: e57d 063f 1435 a53e 0658 4d3e 2661 3f3f
00000330: d56c 70be 49da 25bf 247e 183f 15dd 273e
00000340: b578 81bf df55 0d3f 5842 4cbf 40da e53e
00000350: 1c24 4f3f cf77 0d3f 0f24 8a3e c72a ec3e
00000360: 2f65 583f d3a8 efbd 563b 253f f33d 1e3f
00000370: 31e8 a23f b140 683f 50ab d03d e739 0f3f
00000380: a7e8 8fbe f3b3 203f f4f0 3b3f fe8c c93f
00000390: e977 9cbe 01f8 9b3c 4eb2 c7bd 797b 643e
000003a0: c16d bebe 8479 77bd 0bcb 433f 8f00 a3be
000003b0: 1337 033f 1b12 943f 8542 2cbf 23ed 1a3f
000003c0: ac36 913e 88b2 01bf 5415 823f 1c44 a13e
000003d0: f541 80be aae7 823f f8f2 37bf dad8 b93e
000003e0: 8a83 243f 687e 5cba 9406 04bf 9550 173f
000003f0: 0955 b23f c69c 82be ba6a c03d 31c6 303f

l1.bias f4 [8]
0.5202159 1.5089887 1.431823 1.1641792 0.4857625 1.3072897 0.6296831 1.2977095
00000000: df2c 053f 8b26 c13f fa45 b73f d303 953f
00000010: ddb5 f83e 4555 a73f e932 213f 581b a63f

l2.weight f4 [8, 8]
1.6842314 1.2455969 1.7435516 -1.223691 0.60556585 -0.74093753 2.381767 2.6213334
-0.24116208 1.4940037 -1.5766737 1.6218975 0.68360347 1.9339441 1.2807039 -0.184349
-1.4793507 1.2703135 1.0531476 1.7841198 0.9257296 -0.9386572 0.90441 -1.2562547
-1.0986973 -0.80568147 1.3445514 0.929229 -0.34868395 0.7438734 -0.0009331624 1.0660074
1.7490163 -0.18080862 0.8965008 0.7580634 0.33427754 -0.3072203 1.2649512 -1.118469
0.56014234 -1.9821178 1.0170397 0.49503958 0.7808591 1.5919658 0.81739676 -0.45053482
0.33487988 1.4509705 0.33479425 1.5902665 -1.5901185 1.7943908 -1.3702651 -0.08138644
-0.5009555 0.30301988 1.4660238 1.2482661 -0.7842343 0.32699868 -1.4924474 0.95358855
00000000: e594 d73f b86f 9f3f b32c df3f e8a1 9cbf
00000010: 5d06 1b3f 15ae 3dbf df6e 1840 edc3 2740
00000020: 31f3 76be 833b bf3f 72d0 c9bf 569a cf3f
00000030: a300 2f3f 7b8b f73f 1bee a33f fcc5 3cbe
00000040: 5d5b bdbf a299 a23f 8acd 863f 0a5e e43f
00000050: 9dfc 6c3f d74b 70bf 6a87 673f f4cc a0bf
00000060: 1da2 8cbf 2441 4ebf 431a ac3f f4e1 6d3f
00000070: b486 b2be 7d6e 3e3f 789f 74ba ee72 883f
00000080: c4df df3f e525 39be 1481 653f 7110 423f
00000090: 6d26 ab3e fb4b 9dbe ece9 a13f fe29 8fbf
000000a0: 7d65 0f3f 09b6 fdbf 5b2e 823f d475 fd3e
000000b0: 62e6 473f 89c5 cb3f ea40 513f 80ac e6be
000000c0: 6075 ab3e 67b9 b93f 276a ab3e da8d cb3f
000000d0: 0189 cbbf 99ae e53f d964 afbf efad a6bd
000000e0: 9f3e 00bf 6c25 9b3e aba6 bb3f 2fc7 9f3f
000000f0: 94c3 48bf 5f6c a73e 8408 bfbf 611e 743f

l2.bias f4 [8]
0.874584 0.19589262 0.50346065 0.5439615 -0.38096774 0.3366605 0.9888079 0.87365454
00000000: bde4 5f3f 1398 483e cce2 003f 1041 0b3f
00000010: 340e c3be c45e ac3e 8422 7d3f d3a7 5f3f

l3.weight f4 [61, 8]
0.7070485 -0.763429 -0.16567327 -0.90367013 -0.5442153 -2.3768985 -1.6147871 -1.6067059
-0.5723207 0.37069088 0.54684395 -2.6918411 -0.12609437 -0.94904786 -0.458272 -2.6679015
0.18019888 -2.781473 -2.2222376 0.27897292 -1.6994748 -0.14139293 0.28165957 0.19638911
-0.7348026 -0.33235523 0.027324503 2.216129e-05 -2.062665 -1.7808055 0.6614528 0.16566172
0.26213875 -0.9504436 -2.2111325 -0.3218945 -2.71191 -2.3659465 0.56646603 0.17509735
-1.5108157 -0.8022975 -0.026556347 0.2562752 -1.1610936 -0.10527508 0.4544121 0.3049077
-0.36227134 -0.14200354 -1.707703 -1.6907499 0.027340401 -0.54880923 0.10762356 -0.48427066
0.55203724 -0.057320833 -1.1970532 -2.4488807 -0.48674592 -1.410401 -0.45783398 -3.1420825
0.39219213 -0.035503678 -1.3465666 -2.2075264 0.010948124 -0.65068847 -2.4436991 -2.4960396
-0.4274468 -0.68919176 0.6036329 -0.22691251 -0.54061294 -0.8775386 -0.5087722 -0.3245224
-0.2490911 -0.69791263 0.44411764 -0.22581969 -0.23691487 -0.27394372 -1.1298934 -1.3566056
0.22116426 -1.4279442 0.24070656 -0.14337195 -0.3386118 -1.3641535 -0.8474948 -0.6408163
0.22213104 -0.99884677 -0.15545826 -0.4877349 0.055805515 -0.7637897 -2.3124502 -0.9550362
-0.034003347 -0.047591534 -1.5819017 -1.4559327 -1.0532328 -2.6457245 0.5149184 -0.2470072
0.1894766 -0.057503074 -2.2108836 -1.2634599 -0.1807783 -1.9335287 0.19078891 -1.3282585
-0.18484399 0.0404665 0.031918954 -1.5579627 -2.137278 -2.7709866 0.2818605 -0.3525712
0.11143072 -0.10278004 -0.11193307 -1.3226273 -0.65338314 -2.9501762 0.1920802 -1.5055408
-1.7895471 0.09102649 -1.206976 -0.15299208 -2.3655827 -0.4249775 0.6300692 0.20910917
-0.87140864 0.18972169 -1.1471436 -0.14385931 -0.71335423 -0.1844376 0.12702659 -0.5741766
0.07743375 -0.82445234 -1.8113874 -0.80305916 0.1677528 0.026102483 -0.78103894 -3.088295
0.28081018 -0.75272 -2.14965 -2.7894452 0.23857301 0.05201797 -2.8566136 -1.929414
-1.1474712 -2.3889427 -0.2561481 0.39110586 -0.92251956 0.24160029 0.09922232 0.3774068
-0.7211334 -1.2547884 -0.5049406 0.20526837 -0.47008336 0.18657492 -0.017173767 -0.186314
0.08395028 -1.921434 -1.6024276 -1.685232 0.42704916 -0.26709825 -0.46979088 -0.46633223
0.31024006 -2.7077153 -1.534723 -2.114053 0.35379055 0.18164222 -1.5008261 -2.0583947
-0.5677207 -0.73564756 -0.0020628218 -0.53217673 -0.26645207 -0.3535893 0.25187436 -0.3826915
-0.3541909 -0.27267116 -0.37474692 -0.42173904 0.02736123 -0.15458873 -0.5497216 -1.3091034
0.06328505 -0.23351717 -2.048819 -1.9030844 -0.031162428 -0.40629482 0.029024296 -2.9618242
-0.53498006 -0.5524063 0.43577576 -0.48763323 -0.3622273 -2.6321645 0.25098336 -0.3191545
-1.9680246 -0.15174541 0.52364856 -0.4041203 -0.31277356 -1.917436 0.34162527 0.0969269
-1.2362611 -0.03420323 0.40749478 -0.7049364 -0.19326901 -0.9262616 0.12821513 -0.41973662
0.021708248 0.18428664 0.40678784 -2.191183 -2.6117425 -1.6525408 -0.11766437 -1.7363786
00000000: 2101 353f 1570 43bf 41a6 29be ed56 67bf
00000010: b251 0bbf 1b1f 18c0 58b1 cebf 8aa8 cdbf
00000020: 9c83 12bf 32cb bd3e f7fd 0b3f 2047 2cc0
00000030: e21e 01be cdf4 72bf a1a2 eabe e6be 2ac0
00000040: 0e86 383e a703 32c0 2439 0ec0 8ad5 8e3e
00000050: 6488 d9bf 4fc9 10be af35 903e 3a1a 493e
00000060: 061c 3cbf 772a aabe a3d7 df3c 02e7 b937
00000070: b402 04c0 6ff1 e3bf f854 293f 3aa3 293e
00000080: 0d37 863e 4650 73bf 3283 0dc0 5bcf a4be
00000090: ef8f 2dc0 ab6b 17c0 eb03 113f b84c 333e
000000a0: 6962 c1bf 5e63 4dbf b28c d9bc 8136 833e
000000b0: b79e 94bf 769a d7bd b4a8 e83e dd1c 9c3e
000000c0: a17b b9be 6069 11be 0396 dabf 7e6a d8bf
000000d0: faf8 df3c c37e 0cbf be69 dc3d 53f2 f7be
000000e0: 5052 0d3f 40c9 6abd 0a39 99bf 76ba 1cc0
000000f0: c336 f9be 0588 b4bf 3769 eabe e117 49c0
00000100: 68cd c83e 4e6c 11bd 4b5c acbf 1d48 0dc0
00000110: c35f 333c 8593 26bf 9165 1cc0 1dbf 1fc0
00000120: 4fda dabe df6e 30bf b087 1a3f c15b 68be
00000130: 9c65 0abf 5fa6 60bf e53e 02bf cd27 a6be
00000140: bd11 7fbe 67aa 32bf 6363 e33e 473d 67be
00000150: d099 72be 5a42 8cbe 59a0 90bf 41a5 adbf
00000160: e278 623e e0c6 b6bf c87b 763e 19d0 12be
00000170: 875e adbe 959c aebf 6bf5 58bf 890c 24bf
00000180: 5276 633e 6cb4 7fbf 7330 1fbe 64b8 f9be
00000190: 5394 643d b987 43bf 2fff 13c0 417d 74bf
000001a0: 1847 0bbd 57ef 42bd c17b cabf 015c babf
000001b0: 55d0 86bf 8d53 29c0 b1d1 033f 75ef 7cbe
000001c0: 2706 423e 5888 6bbd 1e7f 0dc0 0eb9 a1bf
000001d0: f21d 39be de7d f7bf 2b5e 433e 6004 aabf
000001e0: be47 3dbe 33c0 253d 73bd 023d 526b c7bf
000001f0: 2ac9 08c0 d857 31c0 0550 903e 3684 b4be
00000200: ca35 e43d 577e d2bd 2a3d e5bd da4b a9bf
00000210: 1e44 27bf b0cf 3cc0 acb0 443e 90b5 c0bf
00000220: e10f e5bf 196c ba3d 317e 9abf f5a9 1cbe
00000230: b565 17c0 a796 d9be 374c 213f b720 563e
00000240: a314 5fbf 6746 423e 9ad5 92bf db4f 13be
00000250: 629e 36bf 36dd 3cbe 4213 023e 3dfd 12bf
00000260: 9695 9e3d 4f0f 53bf 8bdb e7bf 4995 4dbf
00000270: 64c7 2b3e e0d4 d53c 2bf2 47bf a0a6 45c0
00000280: 5ac6 8f3e 42b2 40bf de93 09c0 4586 32c0
00000290: 7c4c 743e cb10 553d c2d2 36c0 0af7 f6bf
000002a0: 56e0 92bf 70e4 18c0 d825 83be 073f c83e
000002b0: 3e2a 6cbf 1166 773e 1235 cb3d 773b c13e
000002c0: 339c 38bf e89c a0bf ca43 01bf df31 523e
000002d0: c4ae f0be 7f0d 3f3e 00b0 8cbc 19c9 3ebe
000002e0: 20ee ab3d 8df1 f5bf 591c cdbf afb5 d7bf
000002f0: 30a6 da3e 1ac1 88be 6e88 f0be 19c3 eebe
00000300: c9d7 9e3e 354b 2dc0 ce71 c4bf a54c 07c0
00000310: 0924 b53e 6b00 3a3e 121b c0bf bdbc 03c0
00000320: 2556 11bf 6653 3cbf 6830 07bb bc3c 08bf
00000330: 686c 88be a809 b5be adf5 803e 24f0 c3be
00000340: 8258 b5be 8e9b 8bbe d4de bfbe 2eee d7be
00000350: a924 e03c 824c 1ebe 8eba 0cbf b390 a7bf
00000360: 989b 813d 201f 6fbe da1f 03c0 4598 f3bf
00000370: 5948 ffbc e005 d0be 5cc4 ed3c 878e 3dc0
00000380: 74f4 08bf 806a 0dbf 001e df3e 10ab f9be
00000390: db75 b9be 6275 28c0 e480 803e 3868 a3be
000003a0: 3be8 fbbf 2663 1bbe d50d 063f dbe8 cebe
000003b0: db23 a0be 8b6e f5bf 82e9 ae3e 9c81 c63d
000003c0: ce3d 9ebf b018 0cbd 28a3 d03e b676 34bf
000003d0: 50e8 45be 7b1f 6dbf d44a 033e b8e7 d6be
000003e0: 7fd5 b13c a3b5 3c3e 7f46 d03e 583c 0cc0
000003f0: ca26 27c0 7586 d3bf 04fa f0bd a741 debf

l3.bias f4 [61]
-0.13770767 0.2334525 0.3516383 0.13773768 0.35012823 -0.067227066 0.21272643 0.111776136
-0.011859926 -0.25415796 -0.23804945 0.13658515 -0.046994008 -0.10468414 0.04431132 0.24638689
0.038514107 0.2486228 -0.23344357 0.17958054 -0.08892625 0.035158712 -0.3629074 0.1914585
-0.21134017 -0.31053 -0.08327041 -0.22717395 -0.513461 -0.016244654 -0.4939085 0.11431796
-0.36551383 0.3295435 -0.2188302 -0.22266407 -0.22242811 0.20058623 0.08170459 0.21773171
0.084196776 0.32696766 -0.30195162 -0.061413765 -0.08045914 -0.49893892 -0.42732075 -0.29055816
-0.091786124 -0.3839331 0.034359336 -0.54420954 -0.13606793 -0.42482358 0.21050332 0.02192079
0.08713926 0.15538274 0.1691968 -0.08160253 0.04556432
00000000: 3d03 0dbe 2c0e 6f3e ef09 b43e 1b0b 0d3e
00000010: 0244 b33e 58ae 89bd f5d4 593e e3ea e43d
00000020: 2350 42bc fe20 82be 3cc3 73be fadc 0b3e
00000030: ca7c 40bd a364 d6bd c97f 353d d84c 7c3e
00000040: f8c0 1d3d fa96 7e3e d50b 6fbe f6e3 373e
00000050: f71e b6bd 9502 103d 00cf b9be b20d 443e
00000060: 8f69 58be cafd 9ebe ad89 aabd 4aa0 68be
00000070: 2e72 03bf 8213 85bc 93e1 fcbe 891f ea3d
00000080: a124 bbbe edb9 a83e 0615 60be 0d02 64be
00000090: 32c4 63be 7a66 4d3e bc54 a73d 10f5 5e3e
000000a0: 5c6f ac3d 4e68 a73e 6799 9abe 008d 7bbd
000000b0: c3c7 a4bd ec74 ffbe c9c9 dabe 0ac4 94be
000000c0: 5dfa bbbd e192 c4be 60bc 0c3d 5151 0bbf
000000d0: 6455 0bbe 7a82 d9be 2f8e 573e 3b93 b33c
000000e0: 1176 b23d a71c 1f3e ed41 2d3e 3a1f a7bd
000000f0: a7a1 3a3d
