data.pth (torch, 11543 bytes, 6 tensors)

l1.weight f4 [8, 139]
0	0x3f35e76c	0.71056247
1	0x3ddc2652	0.107494965
2	0x3e8288fc	0.25495136
3	0x3fe6088a	1.7971356
4	0xbe07e239	-0.13269891
5	0x3f19e515	0.60115176
6	0x3e639885	0.2222615
7	0x3ee8b049	0.45446995
8	0x3e62358b	0.22090738
9	0x3f32c30e	0.6982888
10	0x3f06f6c0	0.5272026
11	0xbed1321b	-0.4085854
12	0x3fae5921	1.362095
13	0x3ede4eac	0.43419397
14	0x3f27d846	0.6556438
15	0x3f7db64d	0.99106294
16	0xbdad5fb5	-0.0846552
17	0x3eaafefa	0.33397657
18	0x3f20e3ed	0.6284779
19	0xbf0a99ee	-0.5414113
20	0x3f807520	1.0035744
21	0x3e9c31f6	0.30506867
22	0xbf35c666	-0.71005857
23	0x3ed1a673	0.40947303
24	0xbf89157c	-1.0709682
25	0xbe615476	-0.22004876
26	0xbf82ed24	-1.022862
27	0x3e5ab9c1	0.21359922
28	0x3f0c1a69	0.547278
29	0xbdd0594f	-0.10173284
30	0xbf2c0c28	-0.6720605
31	0x3efb6494	0.49100173
32	0x3efb2dfb	0.49058518
33	0xbf23ca21	-0.639803
34	0x3d6c97a7	0.057761814
35	0xbe7fa9f8	-0.24967182
36	0xbf0cc2bb	-0.54984635
37	0x3f270f52	0.6525775
38	0x3ec09f4d	0.37621537
39	0x3f4df72e	0.8045529
40	0x3f04ff2f	0.5195188
41	0xbf47738d	-0.7791069
42	0x3fa456d0	1.2838993
43	0xbd9bdf07	-0.076108985
44	0x3f120206	0.5703434
45	0x3f811e12	1.0087302
46	0xbf470f8f	-0.77758116
47	0xbeb29952	-0.348826
48	0x3f25b818	0.6473403
49	0x3f23f509	0.6404577
50	0x3f261918	0.6488204
51	0x3f271f64	0.65282273
52	0xbe3b0ca4	-0.18266541
53	0x3f19e4d2	0.6011478
54	0x3eb08e58	0.344836
55	0xbe3b2eb6	-0.18279538
56	0x3f8a5dfd	1.0809933
57	0x3f8a9d5e	1.0829275
58	0x3e486063	0.19568019
59	0xbf85bed4	-1.0448861
60	0x3f8a9c1c	1.0828891
61	0x3ee5b417	0.4486396
62	0x3f802503	1.0011295
63	0xbf54aa81	-0.8307267
64	0xbf1ca9ac	-0.611964
65	0x3f1d5e52	0.61472046
66	0x3eba2467	0.36355898
67	0x3f4c9235	0.79910594
68	0x3deb9bc6	0.11504321
69	0xbe5efc9c	-0.2177605
70	0x3f17069a	0.5899445
71	0xbf31cbaa	-0.6945139
72	0x3fb6e691	1.4289113
73	0x3fa36940	1.2766495
74	0x3f2375d1	0.6385165
75	0xbf081f26	-0.5317253
76	0x3e8e7fa4	0.27831757
77	0x3ed70a6e	0.42000145
78	0x3f62a7ce	0.885373
79	0xbe83f1c4	-0.2577039
80	0xbea7c5ec	-0.3276819
81	0xbe1a5029	-0.15069641
82	0xbd9c4623	-0.07630565
83	0x3ee7ec2f	0.4529738
84	0x3e396b66	0.18107376
85	0x3e668b91	0.22514178
86	0x3e536d79	0.20647229
87	0xbebfe658	-0.37480426
88	0xbeb310e1	-0.34973815
89	0x3f7b5a09	0.9818426
90	0x3db2dcaa	0.087334946
91	0x3f306094	0.68897367
92	0xbe9f8e36	-0.31163186
93	0xbf2fb6d0	-0.68638325
94	0x3f19bc1e	0.6005267
95	0x3ef4c6de	0.47807974
96	0x3f5e4d40	0.86836624
97	0xbef982db	-0.48732647
98	0xbefa0d0f	-0.48838088
99	0x3f8084aa	1.0040486
100	0x3f367ef4	0.71287465
101	0x3f26ca84	0.65152764
102	0x3f5d8db9	0.86544377
103	0x3f65f8c6	0.89832723
104	0xbf068145	-0.52541
105	0xbf515049	-0.8176313
106	0x3f08725e	0.5329951
107	0xbf4392c4	-0.7639582
108	0x3ee32cdd	0.44370165
109	0xbf82a3f5	-1.0206286
110	0x3d886296	0.06659429
111	0x3fa71250	1.3052464
112	0x3ee18b31	0.44051507
113	0xbea2ed09	-0.31821468
114	0x3eecfdbd	0.46287337
115	0xbe305ef9	-0.17223729
116	0x3d8e9ec8	0.06963879
117	0xbe7b0d10	-0.24516702
118	0xbf2f591b	-0.6849534
119	0xbf1a0662	-0.6016599
120	0xbee657cf	-0.44988868
121	0x3e992687	0.29912207
122	0x3ea8b513	0.3295065
123	0x3eae871c	0.34087455
124	0x3e9210a2	0.28528315
125	0xbf1fd3f8	-0.62432814
126	0xbe7a21d8	-0.24426973
127	0x3ed30027	0.41211054
128	0xbe72971e	-0.23690459
129	0x3ebdb023	0.37048444
130	0x3f8788d0	1.0588627
131	0xbe6fbbd0	-0.23411489
132	0xbf658eee	-0.8967122
133	0x3e32f183	0.17474942
134	0x3ea39ee0	0.3195715
135	0x3f2572f1	0.6462851
136	0x3dfd253b	0.12360617
137	0xbe975291	-0.2955518
138	0x3f457a98	0.7714019
139	0x3db46902	0.08809091
140	0xbed0af66	-0.40758818
141	0x3edfa908	0.43683648
142	0x3f8e6a78	1.1126242
143	0x3f51b706	0.81919897
144	0xbf8c42ab	-1.0957845
145	0x3f6275a6	0.8846077
146	0xbf8071c5	-1.003472
147	0x3f43874d	0.7637833
148	0x3f37d678	0.7181163
149	0x3f00f95b	0.50380486
150	0x3f1d6e8f	0.61496824
151	0x3e9e6994	0.30939925
152	0xbe383c17	-0.17991672
153	0x3f4c3e8a	0.7978293
154	0xbe57af5f	-0.21062993
155	0x3ec3155b	0.3810223
156	0x3f8a4c86	1.0804603
157	0x3f710205	0.94143707
158	0x3f32b6b4	0.6981003
159	0xbda51bdb	-0.08061954
160	0xbe8fa71b	-0.2805718
161	0xbf4aed19	-0.7926803
162	0x3dd1f64c	0.102520555
163	0x3e3e19dd	0.18564554
164	0xbf683fbb	-0.90722245
165	0x3f279f0a	0.6547705
166	0x3f16b9bc	0.5887716
167	0xbeb50034	-0.35351717
168	0x3e1def22	0.15423253
169	0x3d54ee30	0.051984966
170	0x3ef529c5	0.4788343
171	0x3f09d1bd	0.5383566
172	0x3e19276d	0.14956446
173	0xbeb4c916	-0.35309666
174	0x3f38fad8	0.7225776
175	0xbf0c63fa	-0.5484005
176	0x3e27078d	0.16311474
177	0x3ef85679	0.48503473
178	0x3f821b04	1.0164495
179	0x3f01336e	0.504691
180	0x3f009f67	0.5024323
181	0xbec3a3b8	-0.38210845
182	0xbf384530	-0.7198057
183	0xbee0e6ba	-0.4392603
184	0xbe0745c8	-0.13210213
185	0x3f06447b	0.5244824
186	0x3dab3789	0.08360202
187	0xbf52c8f2	-0.8233787
188	0x3d7fe024	0.062469617
189	0xbf4bc69a	-0.79599917
190	0xbf3b6822	-0.7320577
191	0xbe898ec7	-0.26866743
192	0xbe09d71b	-0.13460962
193	0xbe050e25	-0.12993677
194	0xbf40f33f	-0.75371164
195	0xbe4d97a6	-0.2007738
196	0xbf4605cd	-0.773526
197	0xbf165eb7	-0.58738273
198	0x3f3b9bb5	0.73284465
199	0xbe4394e0	-0.1909976
200	0x3ee79207	0.45228598
201	0xbf9d2382	-1.2276461
202	0x3f1bee0a	0.60910094
203	0xbf2aac46	-0.6666912
204	0xbeeb94b0	-0.46011877
205	0x3f151894	0.5824063
206	0xbeee42c9	-0.46535328
207	0xbeb7553a	-0.3580721
208	0xbea9066c	-0.33012712
209	0x3d5f80c5	0.054566164
210	0x3db54f5b	0.088530265
211	0xbe2e1459	-0.1699995
212	0xbe9c9a4c	-0.3058647
213	0x3db9546f	0.090493076
214	0xbf2e506c	-0.68091464
215	0x3f0a907a	0.54126704
216	0x3ef2acab	0.4739736
217	0x3f05e9f3	0.52310103
218	0xbf2bcd8c	-0.67110515
219	0xbf324985	-0.6964343
220	0x3d825062	0.06362988
221	0x3f8ef2ca	1.1167843
222	0x3f1897e4	0.59606767
223	0xbea8a6f7	-0.32939884
224	0x3f8ebd51	1.1151525
225	0x3fa58150	1.2930088
226	0xbf6835cd	-0.90707093
227	0xbf6839b2	-0.90713036
228	0x3e08b810	0.13351464
229	0xbf0520ee	-0.5200337
230	0x3f2b0342	0.66801846
231	0xbea5a960	-0.32355785
232	0x3cfe0ec3	0.031012898
233	0x3f653363	0.89531535
234	0x3f0a4c0c	0.5402229
235	0x3f83443d	1.02552
236	0xbf08cb4c	-0.53435206
237	0x3f2267ba	0.63439524
238	0x3f00bb7e	0.5028609
239	0x3df66981	0.12031842
240	0xbd9c6b83	-0.07637694
241	0x3d4ef640	0.05052781
242	0xbe552d4a	-0.20818058
243	0xbee0a641	-0.43876842
244	0x3ef413d4	0.47671378
245	0xbe558cad	-0.20854445
246	0x3f078806	0.5294193
247	0xbf08a1e5	-0.5337203
248	0xbf0ee78a	-0.5582205
249	0x3f1cbfd5	0.6123021
250	0xbf773bbb	-0.96575516
251	0xbecde203	-0.40211496
252	0xbd2e6ff0	-0.04258722
253	0xbe0f012d	-0.13965292
254	0x3f974f39	1.1821052
255	0xbedb13ca	-0.42788535

l1.bias f4 [8]
0	0x3fe675a3	1.800465
1	0x3f682843	0.90686435
2	0x3f9b0526	1.2110946
3	0x3fb69b5b	1.4266161
4	0x3f611e4e	0.87936866
5	0x3f66ecd0	0.902051
6	0x3fc43ea4	1.5331616
7	0x3fd76c10	1.6829853

l2.weight f4 [8, 8]
0	0xbe45ec0b	-0.19328324
1	0xbe95c906	-0.2925493
2	0x3fcb252c	1.5870719
3	0xbe7554af	-0.23958085
4	0xbf1849ad	-0.5948742
5	0x3fa265d7	1.2687329
6	0x40113df3	2.269406
7	0xbfbb8587	-1.4650124
8	0x3f3810c3	0.71900576
9	0xbfd5bf68	-1.6699038
10	0x3fb37ea1	1.4023019
11	0x40357330	2.8351555
12	0x40535374	3.3019686
13	0x3f9d35aa	1.2282002
14	0xbf36c162	-0.7138883
15	0x3ea4dedd	0.3220128
16	0x3fed82fe	1.8555601
17	0x3db1351e	0.086527094
18	0x3e7bc86d	0.24588175
19	0x3c0a67c5	0.008447592
20	0x3ec18c67	0.3780243
21	0xc0026de3	-2.037957
22	0x3fec5936	1.8464725
23	0x40071a4c	2.11098
24	0xbe271a0f	-0.16318534
25	0x4016331c	2.3468695
26	0xbf913e74	-1.1347184
27	0xbeff6ad8	-0.49886203
28	0x400a44d9	2.1604521
29	0x401d6494	2.4592638
30	0x3f2c22a1	0.6724034
31	0x3fb2aec2	1.3959582
32	0xbe1f2dce	-0.15544817
33	0x3e2b7d3f	0.16746996
34	0x3dc0ce8f	0.09414398
35	0xbe256157	-0.16150413
36	0xbe058a5c	-0.13041061
37	0xbe87427c	-0.2641791
38	0xbe297d36	-0.1655167
39	0xbd7e7678	-0.0621247
40	0xbf6ee001	-0.9331055
41	0x3f934d5b	1.1507982
42	0x3fc31dbf	1.5243453
43	0x3f69d8bd	0.9134634
44	0xbf0b9e94	-0.54538846
45	0xbf4abbf7	-0.7919306
46	0x3feb332e	1.8374994
47	0x3fed82ac	1.8555503
48	0x40432f37	3.0497568
49	0x3fca49e5	1.5803801
50	0x3f6fddf3	0.9369804
51	0xbf39ec67	-0.72626346
52	0xbf9c4799	-1.220935
53	0x3f50393c	0.8133733
54	0xbf183a93	-0.5946438
55	0xbf823b80	-1.0174408
56	0x3fc006b6	1.5002048
57	0xbd84f491	-0.0649196
58	0xbfb10dd9	-1.3832351
59	0x3fa33012	1.2749045
60	0xbf95a065	-1.1689574
61	0x3ecb1d11	0.39670613
62	0x3ffcd17a	1.9751427
63	0x3fff7347	1.9957055

l2.bias f4 [8]
0	0x3e9e30f4	0.30896723
1	0x3f220c04	0.63299584
2	0x3f6e4423	0.9307272
3	0x3de3a163	0.111147664
4	0xbee1ec72	-0.44125706
5	0x3f4c2958	0.79750586
6	0x3f8a75ef	1.081724
7	0x3f09563e	0.5364722

l3.weight f4 [64, 8]
0	0xbf91e4bc	-1.1397929
1	0x3e1f7144	0.15570551
2	0x3ebf18f6	0.3732373
3	0xbf060757	-0.5235495
4	0xbecbc832	-0.39801174
5	0x3e0bfd5b	0.13670866
6	0xc0192a2e	-2.3931994
7	0x3e74a96a	0.23892751
8	0xc04440d0	-3.0664558
9	0x3ecd547b	0.40103516
10	0x3ee349c8	0.44392228
11	0xc02df891	-2.7182963
12	0xbd473baa	-0.048640884
13	0xbe1a4f02	-0.15069202
14	0x3e175060	0.14776754
15	0xbdc523ae	-0.09625946
16	0xbf865458	-1.049449
17	0xbfe2cdf2	-1.77191
18	0xbd88e2b9	-0.06683869
19	0x3f0674b6	0.52521837
20	0x3c706857	0.014673314
21	0xbd9db942	-0.07701351
22	0xbef6f8c3	-0.48236665
23	0x3f1ef616	0.6209425
24	0xc01feae9	-2.4987128
25	0xc01e7e27	-2.4764497
26	0x3f160d9a	0.58614504
27	0xbe712d42	-0.2355242
28	0xbed78b0d	-0.42098275
29	0x3eaf16e4	0.34197152
30	0xbe98eed9	-0.29869726
31	0x3f222024	0.6333029
32	0xbff11c40	-1.8836746
33	0xbf3d1a20	-0.7386799
34	0xbe905a21	-0.28193763
35	0x3e950fde	0.29113668
36	0x3e82e121	0.25562385
37	0x3f00445c	0.5010431
38	0xc0124b40	-2.285843
39	0x3f46f39a	0.77715456
40	0xc050c893	-3.262242
41	0xbf087fd4	-0.5332005
42	0x3efd5943	0.49482164
43	0xbf4f0b52	-0.8087665
44	0xbe87a9ec	-0.26496828
45	0x3c4f535b	0.012654151
46	0xbf12239b	-0.5708558
47	0x3f523332	0.8210937
48	0xbf531893	-0.8245937
49	0xbe647ef9	-0.22314061
50	0x3ebe5cb0	0.3718009
51	0xc003cd1d	-2.0593941
52	0xbd1759e0	-0.036950946
53	0x3e7e53b2	0.24836615
54	0xbeb34c27	-0.35019037
55	0x3ebe9d24	0.37229264
56	0xbf623dea	-0.88375723
57	0x3d823b77	0.06358998
58	0xbec7c536	-0.39017648
59	0x3e127cee	0.1430547
60	0xbedf99f9	-0.4367216
61	0xbc68e573	-0.014214861
62	0xbe0ea160	-0.13928747
63	0xbf7ef0f1	-0.995864
64	0xbf46ed28	-0.7770562
65	0xbef9d4a4	-0.48795044
66	0xbe3e9d83	-0.18614773
67	0xbe29746e	-0.1654832
68	0xbea9436e	-0.33059257
69	0x3ee6ca92	0.45076424
70	0xbf174ac4	-0.5909846
71	0x3e596aa4	0.21232086
72	0xc02641cb	-2.5977657
73	0xc0306a22	-2.7564778
74	0x3da89419	0.082313724
75	0x3e6fd39d	0.23420568
76	0x3e6f41ce	0.23364946
77	0xbef147b2	-0.47125012
78	0x3ec4a9a9	0.3841069
79	0x3f080395	0.53130466
80	0xbfabffc0	-1.3437424
81	0x3ec70e36	0.3887803
82	0xbf548d16	-0.8302778
83	0x3e9e49d3	0.30915698
84	0x3e90f3c4	0.28310978
85	0xbebaba7a	-0.36470395
86	0xbfd34a72	-1.6507094
87	0x3dd97d24	0.10619572
88	0xbfd96d14	-1.6986413
89	0x3ededc7f	0.435276
90	0xbfd66b58	-1.6751509
91	0x3ee2e90e	0.44318432
92	0xbe9d173f	-0.30681798
93	0xbfbe873f	-1.4885024
94	0xbf2a8640	-0.666111
95	0xbdd101c5	-0.10205416
96	0xbf1310b4	-0.5744736
97	0x3d6afdbe	0.057370894
98	0x3f1c9c14	0.61175656
99	0xc04014da	-3.0012727
100	0xbe83998e	-0.2570309
101	0x3e59f9b1	0.21286656
102	0x3d029124	0.031876698
103	0xbfa04b1d	-1.2522923
104	0xbf33b6a8	-0.70200586
105	0x3e7c9cf0	0.24669242
106	0xbe867162	-0.2625838
107	0xbf6295b4	-0.8850968
108	0xbe808df3	-0.251083
109	0xbf4c100b	-0.7971198
110	0x3f065a4b	0.52481526
111	0xc00d7082	-2.209992
112	0x3da24f24	0.07925251
113	0xbfe9bbeb	-1.8260473
114	0xbf56f597	-0.8396849
115	0x3e812bf1	0.25228837
116	0xbe9a8215	-0.3017737
117	0x3e51561c	0.20443004
118	0x3ea68d53	0.32529697
119	0xbf9ae14d	-1.2100006
120	0xbe916099	-0.2839401
121	0xbf2f2fcc	-0.6843231
122	0xbfdc5e56	-1.7216289
123	0x3e9b2b4f	0.3030648
124	0xbe814f1b	-0.25255665
125	0xbeb9ced2	-0.36290604
126	0x3f00ab21	0.5026112
127	0xbfdda1f4	-1.7315049
128	0x3ea17e1a	0.3154152
129	0x3e96d38b	0.2945827
130	0xbf3958b9	-0.72401005
131	0xbe7fedc2	-0.24993041
132	0xbe9e0580	-0.3086357
133	0x3e9f99ca	0.3117202
134	0xbff4c885	-1.9123694
135	0xbfd1540b	-1.6353773
136	0x3e6081ef	0.21924566
137	0x3eadc59e	0.33939832
138	0xbfda09e0	-1.7034264
139	0x3e324fa6	0.17413196
140	0x3e038360	0.12843084
141	0xbf0c13ba	-0.547176
142	0xbf682376	-0.9067911
143	0xc00ddc67	-2.2165773
144	0xbd6d0f5d	-0.05787598
145	0xbd62911b	-0.055314165
146	0xbf513ed2	-0.8173648
147	0xbe9764e9	-0.29569176
148	0xbec75438	-0.3893144
149	0x3ec68958	0.3877666
150	0xc0037874	-2.0542269
151	0x3e3cd7eb	0.18441741
152	0x3dcf788c	0.10130414
153	0x3e87b6be	0.2650661
154	0xbf6e6879	-0.9312816
155	0xbdd5a65b	-0.104321204
156	0xbe917444	-0.28409016
157	0xbf2adc55	-0.6674245
158	0xbfa381f9	-1.277404
159	0xbe2c5d49	-0.1683246
160	0xbf052456	-0.5200857
161	0xbf877850	-1.0583591
162	0x3e9674e8	0.29386067
163	0xbf2d621f	-0.67727846
164	0xbd841c8e	-0.06450759
165	0xbf2b25ce	-0.6685456
166	0x3dfb7bf9	0.12279505
167	0x3f0eff57	0.5585837
168	0xbf5b589b	-0.85682076
169	0xbf2360f9	-0.63819844
170	0x3eb92b5c	0.36165893
171	0xbe617bdf	-0.2201991
172	0xbe8d9d07	-0.27658865
173	0xbff618d2	-1.9226325
174	0x3ece1526	0.4025051
175	0xbc71e762	-0.014764639
176	0x3e666ea5	0.22503145
177	0x3d6bc2e0	0.057558894
178	0xbfd438a8	-1.657979
179	0xbea3164a	-0.31852943
180	0xbe8d3a1f	-0.27583405
181	0x3ed35162	0.41273028
182	0xbf170f84	-0.5900805
183	0xbf9b61e9	-1.2139255
184	0x3e8ffa11	0.28120473
185	0xbec60677	-0.38676807
186	0xc00fa034	-2.244153
187	0x3d840cb8	0.064477384
188	0xbeabd881	-0.33563617
189	0xbe4c7f15	-0.19970353
190	0xbd305233	-0.04304714
191	0xbf956555	-1.1671549
192	0xbe0b08ec	-0.13577622
193	0xbfdd87dd	-1.7307087
194	0x3e6a2338	0.22864997
195	0xbf017c82	-0.5058061
196	0xbe6dc4e2	-0.23219636
197	0x3eb44c88	0.3521464
198	0xbeeda98c	-0.46418417
199	0x3e5a2b71	0.21305634
200	0xbe438d4a	-0.19096866
201	0xc0557c49	-3.3357108
202	0x3db18ae2	0.08669068
203	0xbf19e2d1	-0.6011172
204	0x3c29f450	0.01037319
205	0x3e7e3a33	0.24826889
206	0x3eb65e31	0.35618737
207	0xbe05b364	-0.13056713
208	0xc04ca4ed	-3.1975663
209	0xbfa38b03	-1.2776798
210	0xbe111937	-0.14169775
211	0x3ee61ebd	0.44945326
212	0x3db9e496	0.090768024
213	0x3dbd3101	0.092378624
214	0x3e063622	0.13106588
215	0x3d78ce56	0.060743652
216	0xc004b2b3	-2.073407
217	0xbf1ae501	-0.6050568
218	0xbf32d361	-0.6985379
219	0x3f0d3d4c	0.55171657
220	0x3e3d755f	0.18501805
221	0xbfb0d0f0	-1.3813763
222	0x3e0a3a81	0.1349888
223	0x3d815fde	0.06317113
224	0xbffb5bfc	-1.9637446
225	0xbeb9a006	-0.362549
226	0xbfb5cdbf	-1.4203414
227	0x3eb11338	0.34584975
228	0xbea3d8bf	-0.32001302
229	0x3ec0a2e3	0.37624273
230	0xbe2ef3b3	-0.17085151
231	0x3ed7767c	0.42082584
232	0xbf9f1fce	-1.2431581
233	0xbe52322f	-0.20526956
234	0xc01daed9	-2.4637969
235	0x3ee6927d	0.45033637
236	0xbea1973b	-0.31560692
237	0xbef9335d	-0.48672
238	0x3e7a9341	0.24470235
239	0xbed380eb	-0.41309294
240	0xc016fa2a	-2.3590188
241	0xbf9d4c5a	-1.2288926
242	0x3e18573b	0.14877026
243	0x3e14c86b	0.14529578
244	0x3e4da6d5	0.20083173
245	0xbfdf85e0	-1.746273
246	0x3eec75d5	0.4618365
247	0x3eac3f51	0.33642057
248	0xbd2f033f	-0.042727705
249	0x3e863f0e	0.26219982
250	0xc01cb50e	-2.4485507
251	0xbda0f034	-0.07858315
252	0x3da236d9	0.079206176
253	0xbfab8f38	-1.3403082
254	0xbe42fb67	-0.19041215
255	0xbec3b13f	-0.38221166

l3.bias f4 [64]
0	0xbcfa8a99	-0.030583667
1	0x3e6287f4	0.22122175
2	0x3e2f83a8	0.17140067
3	0x3dd24f8f	0.10269081
4	0xbe951120	-0.29114628
5	0x3eacec57	0.33774063
6	0x3ea904a7	0.33011362
7	0x3e7e379e	0.24825904
8	0xbdaad9dc	-0.08342335
9	0xbd6701f7	-0.05639836
10	0x3caf2f66	0.021384906
11	0xbe4c81a5	-0.1997133
12	0x3d51d839	0.051231597
13	0x3eeadd8a	0.45872146
14	0x3e06fc17	0.13182102
15	0xbd53cf12	-0.05171115
16	0x3db7ed3e	0.08980797
17	0x3c166f66	0.009181833
18	0xbe98db65	-0.29854885
19	0xbc12a5f2	-0.008950697
20	0x3eb22849	0.3479636
21	0xbed2b301	-0.41152194
22	0xbf02ff56	-0.5117086
23	0xbe83cb50	-0.25741053
24	0xbd010d12	-0.031506605
25	0x3c8462d3	0.016160404
26	0xbe5f0bd3	-0.21781854
27	0x3e1ca203	0.15296178
28	0xbe8c0e40	-0.27354622
29	0xbdabeec0	-0.08395147
30	0x3de9b2ae	0.114110336
31	0xbe9be67d	-0.30449286
32	0x3e456074	0.19275075
33	0x3e7957c8	0.24349892
34	0x3d83c4c7	0.06434017
35	0xbd263220	-0.040575147
36	0x3d55f54c	0.052235886
37	0x3d877c18	0.06615466
38	0x3ec419e6	0.3830101
39	0x3b962478	0.004581984
40	0xbcf279e6	-0.029599141
41	0x3d147e93	0.036253523
42	0x3e233826	0.15939388
43	0x3e314cd2	0.17314461
44	0x3e388415	0.18019135
45	0x3dbc4b84	0.09194091
46	0x3e4832d9	0.19550647
47	0xbe9e4099	-0.3090866
48	0x3c6fc61e	0.014634637
49	0x3f11b54f	0.5691728
50	0x3ea296fb	0.31755814
51	0xbe299640	-0.16561222
52	0xbe9f5336	-0.31118172
53	0x3e932b58	0.28744006
54	0xbe94afd2	-0.2904039
55	0x3e933cf8	0.28757453
56	0x3de71e43	0.11285069
57	0x3cce72ae	0.025201168
58	0x3dc5c900	0.09657478
59	0x3df7927d	0.12088487
60	0xbca47af3	-0.020078158
61	0x3d1c85a9	0.038213406
62	0xbea83a6a	-0.32857066
63	0xbe2ad35d	-0.16682191
