data.pth (torch, 4951 bytes, 6 tensors)

l1.weight f4 [8, 51]
0.7727959 0.7732056 0.71745425 0.65758747 -0.015397963 0.24320488 0.023133297 -0.3765492
0.15316577 0.020817861 -0.29214007 0.12319862 -0.17218247 0.57751423 0.5808646 -0.0916635
0.077054754 -0.18900414 -0.58915883 0.54435694 -0.52589667 -0.3840596 -0.377298 -0.014126337
-0.5144963 -0.1642569 0.649647 0.5585103 0.060511317 -0.19796059 0.40750107 0.18482357
0.41109827 -0.3203735 -0.2052763 -0.29091427 -0.3580779 -0.23484568 -0.5761737 -0.10724486
-0.054365408 0.79355687 -0.060949948 0.9660119 1.1375997 0.59426665 -0.13876529 0.38370723
0.3281856 0.5250231 0.56217074 -0.22019714 -0.33395463 -0.32819325 -0.21893981 0.5129256
0.4373012 0.0754444 -0.08551722 -0.6061416 0.4150508 0.77770126 -0.25457385 0.4257326
0.03619912 -0.22150256 0.2055969 -0.6903682 0.13053206 -0.2799248 -0.019107915 -0.3519588
-0.21579435 -0.04769803 0.4642472 0.853654 -0.06991352 -0.36705357 -0.08733608 -0.0840696
0.37323695 0.178447 0.4564796 -0.21378577 0.6512809 0.39558926 0.6606629 0.4222237
0.7131091 0.97713006 -0.3304586 0.54655325 -0.47919568 0.4262502 -0.57863706 -0.2972975
0.08691078 -0.102491885 0.5516014 -0.24426718 -0.5597379 -0.07101941 0.6145477 0.053972673
0.14453247 0.44482452 -0.20346494 0.560147 0.050660048 -0.23944138 -0.6482556 0.43781137
0.9130978 -0.15893093 0.55380136 -0.37051895 -0.23868765 0.063614294 -0.5565846 0.39422178
-0.34220216 0.5249352 -0.44254476 -0.3500479 -0.06357611 0.6611896 -0.4056054 0.030172516
-0.32529885 -0.43224585 -0.28560778 0.48604536 0.5095163 -0.48956832 0.11857742 0.741459
0.567294 0.77078354 0.95235234 0.4930893 0.7847455 -0.2467359 -0.36538634 -0.032038417
-0.11041324 -0.17151546 0.88980305 0.51141804 -0.09971127 0.15476288 -0.070779115 -0.14497754
0.15228076 -0.22214352 0.4305293 0.8605525 0.76643145 0.03499157 0.41827706 0.45698097
0.48766553 0.17238243 -0.1347252 -0.4064072 0.7351593 -0.26658395 0.46819565 0.4504467
0.5762609 0.17039388 0.20313196 0.8801807 -0.26514652 0.63044935 0.93771404 0.6216602
0.108476534 -0.69309413 0.43298116 0.5034348 0.29288512 0.22919264 -0.3101322 -0.15041132
0.018347565 0.64188 -0.40813977 -0.27340668 -0.48194635 -0.4252671 -0.27775288 -0.68581307
0.16008845 -0.013544386 0.4437089 -0.035207648 0.619849 -0.6542784 -0.19862592 0.5331056
0.40120244 0.5374901 0.77804345 0.056033187 -0.10091484 -0.03361669 -0.45222592 -0.44541806
0.44357744 0.17850679 0.4744797 0.6469939 1.217268 -0.008077937 0.6488959 0.3744531
0.2545589 0.09615428 -0.055380594 0.36510924 1.1968998 0.072896555 0.8047157 -0.14351885
0.67078435 0.7975567 0.63182676 0.4313958 0.8584118 0.65013427 0.038073692 0.21673317
0.86297864 0.3200322 0.02866209 0.39056224 -0.23648256 -0.41287994 0.36600038 0.5283207
0.5295061 -0.44888455 -0.8163061 0.90458274 0.5648044 -0.041349184 0.4618836 -0.00096853334
-0.3162732 -0.0020652325 0.55103624 0.0069793556 -0.33263743 -0.93704396 0.35985583 -0.3245333
00000000: f4d5 453f cdf0 453f 15ab 373f a757 283f
00000010: bd47 7cbc b30a 793e 0a82 bd3c 0fcb c0be
00000020: 7dd7 1c3e 388a aa3c 6293 95be 8f4f fc3d
00000030: 9a50 30be f9d7 133f 8bb3 143f 13ba bbbd
00000040: e2ce 9d3d 4d8a 41be 1dd3 16bf fa5a 0b3f
00000050: 2aa1 06bf 76a3 c4be 342d c1be 2772 67bc
00000060: 08b6 03bf f632 28be 444f 263f 88fa 0e3f
00000070: b7da 773d 2eb6 4abe fba3 d03e 6442 3d3e
00000080: 797b d23e ff07 a4be f333 52be b7f2 94be
00000090: fd55 b7be 637b 70be 1f80 13bf 31a3 dbbd
000000a0: 43ae 5ebd 8b26 4b3f a7a6 79bd 8e4c 773f
000000b0: de9c 913f dc21 183f 7d18 0ebe 4675 c43e
000000c0: f107 a83e ea67 063f 6cea 0f3f 5c7b 61be
000000d0: 1afc aabe f208 a8be c231 60be 184f 033f
000000e0: f1e5 df3e 9882 9a3d a723 afbd 192c 1bbf
000000f0: 8a81 d43e 6e17 473f 8157 82be a0f9 d93e
00000100: 8745 143d 91d1 62be fe87 523e f8bb 30bf
00000110: 32aa 053e 4e52 8fbe 3488 9cbc f233 b4be
00000120: 32f9 5cbe 025f 43bd cfb1 ed3e 1289 5a3f
00000130: d22e 8fbd 72ee bbbe 42dd b2bd af2c acbd
00000140: ea18 bf3e cfba 363e b2b7 e93e a8ea 5abe
00000150: 58ba 263f ad8a ca3e 3421 293f b42d d83e
00000160: 518e 363f 3225 7a3f df31 a9be eaea 0b3f
00000170: 2359 f5be 773d da3e 8f21 14bf 6137 98be
00000180: 47fe b13d 44e7 d1bd c035 0d3f 2d21 7abe
00000190: fc4a 0fbf a072 91bd 0053 1d3f 7312 5d3d
000001a0: 5200 143e 0ac0 e33e 1d59 50be cb65 0f3f
000001b0: e980 4f3d 1f30 75be 14f4 25bf d028 e03e
000001c0: c7c0 693f cabe 22be edc5 0d3f a9b4 bdbe
000001d0: 896a 74be 3648 823d 547c 0ebf 70d7 c93e
000001e0: 1f35 afbe 2762 063f 3a95 e2be 7a39 b3be
000001f0: 3134 82bd b943 293f 83ab cfbe 5a2c f73c
00000200: 928d a6be 544f ddbe 2f3b 92be f0da f83e
00000210: a96f 023f b3a8 fabe b8d8 f23d 42d0 3d3f
00000220: 2e3a 113f 1252 453f 5dcd 733f 3376 fc3e
00000230: 15e5 483f 56a8 7cbe eb13 bbbe b73a 03bd
00000240: 5620 e2bd c0a1 2fbe 22ca 633f 4bec 023f
00000250: 6c35 ccbd 297a 1e3e a4f4 90bd fe74 14be
00000260: 7def 1b3e 9779 63be 566e dc3e 2b4d 5c3f
00000270: da34 443f 5253 0f3d 6928 d63e 69f9 e93e
00000280: 4caf f93e 0585 303e 67f5 09be 9b14 d0be
00000290: 6633 3c3f b17d 88be 57b7 ef3e f3a0 e63e
000002a0: d685 133f bc7b 2e3e d301 503e 8653 613f
000002b0: 49c1 87be 2165 213f 070e 703f 1f25 1f3f
000002c0: f228 de3d 9e6e 31bf b5af dd3e 1ae1 003f
000002d0: 0af5 953e 7ab1 6a3e a6c9 9ebe 6d05 1abe
000002e0: a24d 963c 3f52 243f b2f7 d0be f6fb 8bbe
000002f0: acc1 f6be 9cbc d9be a035 8ebe 7291 2fbf
00000300: 3aee 233e 46e9 5dbc d02d e33e e535 10bd
00000310: 6dae 1e3f ca7e 27bf 9864 4bbe 9c79 083f
00000320: 686a cd3e f498 093f db2d 473f 0e83 653d
00000330: 71ac cebd a8b1 09bd 288a e7be d60d e4be
00000340: 951c e33e 7cca 363e 01ef f23e 64a1 253f
00000350: 70cf 9b3f 5359 04bc 0b1e 263f 51b8 bf3e
00000360: 8b55 823e 89ec c43d c3d6 62bd 99ef ba3e
00000370: 0334 993f ca4a 953d d901 4e3f 9bf6 12be
00000380: 86b8 2b3f ad2c 4c3f 66bf 213f e9df dc3e
00000390: e0c0 5b3f 336f 263f 29f3 1b3d 4def 5d3e
000003a0: 2bec 5c3f 43db a33e c2cc ea3c c6f7 c73e
000003b0: 7c28 72be 0065 d3be 6764 bb3e 0740 073f
000003c0: b68d 073f 32d4 e5be 70f9 50bf bc92 673f
000003d0: 0597 103f c35d 29bd 027c ec3e 2ce5 7dba
000003e0: 90ee a1be da58 07bb b610 0d3f 14b3 e43b
000003f0: 744f aabe 1de2 6fbf 063f b83e 3b29 a6be

l1.bias f4 [8]
0.58915555 0.8229742 0.93179476 0.68587506 0.9373326 0.9083188 0.46609807 0.7580417
00000000: e6d2 163f 70ae 523f 1a8a 6e3f 8295 2f3f
00000010: 07f5 6f3f 9587 683f 68a4 ee3e 050f 423f

l2.weight f4 [8, 8]
0.74912035 0.2571802 -0.17381808 0.21053465 0.9376635 -0.5784297 1.3918386 -1.0347561
-0.1762625 0.3245539 -0.32250434 0.13591322 -0.19895011 0.068949655 -0.28745067 -0.1869123
-0.7470898 1.0143825 0.51965654 0.13794851 1.8516164 1.3467531 -1.2557395 -0.49103418
-0.3205194 0.40058395 1.2575501 0.5767014 -0.3392931 0.73544633 -0.44008103 0.9527188
-0.27971005 -0.41966364 0.092434354 0.09331886 0.013341815 0.13390413 0.14651604 -0.26887175
0.91945714 -0.43564835 1.0465766 0.017275363 0.6169522 -0.067342356 -0.38659266 -0.57882375
1.4851257 -0.90338707 -0.1366585 1.3570065 0.010194818 0.77275246 -0.17495537 1.6423872
0.48569041 1.4350045 1.5727465 -1.3844414 -0.32171395 -0.3904782 1.1335506 0.58508116
00000000: 5ac6 3f3f 20ad 833e 5efd 31be 6596 573e
00000010: b70a 703f f813 14bf c427 b23f e372 84bf
00000020: 287e 34be ee2b a63e 4a1f a5be d62c 0b3e
00000030: 94b9 4bbe 7a35 8d3d bc2c 93be f065 3fbe
00000040: 4741 3fbf 49d7 813f 3608 053f 6042 0d3e
00000050: c401 ed3f 6862 ac3f 12bc a0bf d568 fbbe
00000060: 1e1b a4be 5719 cd3e 67f7 a03f b4a2 133f
00000070: d3b7 adbe 3646 3c3f 4d52 e1be 61e5 733f
00000080: 2836 8fbe 27de d6be 394e bd3d f51d bf3d
00000090: a197 5a3c 2a1e 093e 4d08 163e 8fa9 89be
000000a0: 8b61 6b3f 4d0d dfbe 39f6 853f 1085 8d3c
000000b0: 94f0 1d3f caea 89bd 79ef c5be cb2d 14bf
000000c0: 9918 be3f 6044 67bf 35f0 0bbe 64b2 ad3f
000000d0: 2a08 273c 1bd3 453f 8027 33be be39 d23f
000000e0: 6aac f83e 3aae b73f c24f c93f 6035 b1bf
000000f0: b1b7 a4be c2ec c7be 3018 913f e1c7 153f

l2.bias f4 [8]
0.121225245 -0.3341165 0.7094841 -0.33228648 -0.26357874 -0.05546691 0.6475731 0.72144586
00000000: f144 f83d 5111 abbe c0a0 353f 7421 aabe
00000010: cbf3 86be 4531 63bd 5ac7 253f adb0 383f

l3.weight f4 [8, 8]
-1.3474466 0.03777787 0.42855585 0.8291007 -0.26263773 0.4431031 -1.2836462 0.112468146
0.72243726 -0.32352045 0.74829805 -1.3778172 0.116974 -1.9633528 -1.5684026 0.23909438
-1.5936543 0.15105751 -1.2805117 0.8355005 0.072792545 -1.1523397 0.58797824 -0.37236345
-0.1176294 0.33534548 -0.56968284 0.61829776 -0.16215712 -1.9361142 -1.6263442 0.9900572
0.43885592 0.26096258 -1.2592151 -1.3728232 -0.10678048 0.23119794 0.6016598 -0.8444848
0.57895565 0.2991169 0.53853405 -1.6537898 -0.11656819 0.31321016 -0.23351365 -1.187287
-1.5430522 0.2280776 0.34683722 0.7275869 0.018348511 -0.9601028 0.18917263 -1.4152635
-0.14518727 -0.1436114 -1.1929079 -0.7353139 -0.23683932 0.37120605 -0.003993704 0.7247854
00000000: 2179 acbf f8bc 1a3d ac6b db3e f23f 543f
00000010: 7478 86be 69de e23e 854e a4bf b355 e63d
00000020: a6f1 383f 79a4 a5be 7690 3f3f 505c b0bf
00000030: 1190 ef3d 254f fbbf 6bc1 c8bf 28d5 743e
00000040: ddfc cbbf d2ae 1a3e cfe7 a3bf 5ce3 553f
00000050: 4214 953d de7f 93bf be85 163f 6ca6 bebe
00000060: afe7 f0bd 67b2 ab3e bcd6 11bf c348 1e3f
00000070: 840c 26be 97d2 f7bf 0c2c d0bf 6374 7d3f
00000080: b9b1 e03e e39c 853e f62d a1bf acb8 afbf
00000090: b9af dabd 27bf 6c3e 6006 1a3f 2830 58bf
000000a0: 7036 143f da25 993e 5edd 093f 62af d3bf
000000b0: 4ebb eebd 155d a03e 341e 6fbe 05f9 97bf
000000c0: bc82 c5bf 2d8d 693e a694 b13e 2343 3a3f
000000d0: 9e4f 963c 4cc9 75bf 78b6 413e 5b27 b5bf
000000e0: f9ab 14be de0e 13be 35b1 98bf 883d 3cbf
000000f0: 0286 72be b80e be3e 9edd 82bb 898b 393f

l3.bias f4 [8]
-0.42493397 -0.104801916 0.036570445 -0.05838542 0.21146084 0.29537347 -0.021070028 -0.34640074
00000000: f290 d9be 63a2 d6bd e4ca 153d 8d25 6fbd
00000010: 3189 583e 313b 973e 0d9b acbc 705b b1be
