data.pth (torch, 5079 bytes, 6 tensors)

l1.weight f4 [8, 52]
000000 6a 2d e9 3e 95 70 e2 3e 34 cb 96 3e 0f 92 b7 3e
       0.4554246 0.44226518 0.29451907 0.3585362
000010 79 0d fc bd 66 9f 00 3e c6 17 5e be ed a9 e5 be
       -0.12307257 0.12560806 -0.21688756 -0.44856206
000020 d7 17 3d 3f f3 6f fc 3e 96 3b e5 be 93 c5 6d be
       0.738645 0.4930416 -0.44772023 -0.232199
000030 86 d6 e7 bb 0d 93 4b 3e 90 d9 53 3e 5c 2a 9b be
       -0.0070751337 0.19880314 0.20688462 -0.30305755
000040 80 55 3d 3f 71 48 c6 bc 59 04 09 bf db 5c d0 3e
       0.7395859 -0.024204465 -0.5352226 0.40695843
000050 77 fc 08 bf ba f2 08 bf c8 b9 bc be fe 25 23 bd
       -0.5351023 -0.5349537 -0.3686049 -0.039831154
000060 90 3f 9f be 89 20 30 be 0d b4 3f 3e 40 3b 6b 3e
       -0.31103182 -0.17199911 0.18721028 0.22971821
000070 3e 84 02 3f 24 6c de 3c 22 45 96 3e 19 ad 00 be
       0.50983036 0.027151175 0.2934962 -0.12566032
000080 ef c5 02 3e 2a bb 6f 3f d8 9f c3 3d 01 ab e3 be
       0.12770818 0.93644965 0.09551972 -0.44466403
000090 a1 c7 fe be 87 89 0b 3f 03 09 91 3f 62 7a df be
       -0.4976168 0.54506725 1.1330875 -0.43648058
0000a0 08 cf 96 3e 03 5e f8 bd 8f 7b da 3e af af b7 bc
       0.29454827 -0.12127306 0.42672393 -0.02242264
0000b0 42 ad ad 3e 19 46 28 3f d6 70 c6 3e 8e 9c b9 bd
       0.33921248 0.6573196 0.38757962 -0.090630636
0000c0 59 04 25 3e f5 6e 9c 3e 4d 5d db 3e ed a5 be 3e
       0.1611494 0.30553403 0.4284462 0.37235966
0000d0 0a 56 80 be f6 0a a1 be d9 52 2b 3f 7c 20 da 3e
       -0.25065643 -0.31453675 0.6692329 0.4260291
0000e0 6d 8f cc 3e b3 f4 c7 3e 1f 2e 01 3f 14 7f 14 3f
       0.39953175 0.39053878 0.50461 0.58006406
0000f0 66 13 1f bd 51 89 d2 3c a1 c0 0c 3f 21 8a 0d 3f
       -0.03883686 0.025700243 0.5498143 0.55288893
000100 b5 14 c6 3e b6 57 83 bd 76 72 02 be a8 9e 0e 3f
       0.38687673 -0.06413214 -0.12738976 0.5571084
000110 a4 db 34 3c 13 b6 b7 3e 6e d2 70 3f 10 ff dc be
       0.0110386945 0.358811 0.9407109 -0.43163347
000120 9d b7 5c 3f 3e 60 3b 3f 90 a1 31 3f 14 40 00 3f
       0.8621767 0.7319373 0.6938715 0.50097775
000130 dc cc 81 3f 53 6a 01 3f 2b 96 d8 bd 98 7f 15 bd
       1.0140643 0.5055286 -0.10575517 -0.036498636
000140 b7 9e d5 3d fb 42 8c 3e 19 41 ec 3c 24 50 f0 3e
       0.10430663 0.27394852 0.028839635 0.46936142
000150 47 6a ac 3e fe fc be be cf 34 99 3e 89 a9 c0 3e
       0.33674833 -0.37302393 0.29923102 0.37629345
000160 81 69 e5 3e da 40 e3 be 21 d5 39 bf cd 27 51 bf
       0.44807056 -0.44385415 -0.72590834 -0.81701356
000170 e6 30 40 3e 7c 7f 3a 3f 88 23 21 be 2c ae dd 3e
       0.18768653 0.72850776 -0.1573621 0.43296945
000180 1d 7a 90 be 31 aa 2d bf 80 50 87 3c 97 12 02 3f
       -0.28218165 -0.67837816 0.016517878 0.50809616
000190 5a 5f 98 3e c7 2e a4 3e 1a 28 33 3f 24 c8 df 3d
       0.29760247 0.32066938 0.69983065 0.10926846
0001a0 97 a7 8d 3e 2c a4 08 3f 4f f7 8e be 1a db d9 be
       0.27666923 0.53375506 -0.27923056 -0.42549974
0001b0 bd 05 06 3f bc d9 94 be 7b 5b a1 be 6d fa db be
       0.52352506 -0.29072368 -0.31515107 -0.42964497
0001c0 d6 10 8d 3f 3d 52 a7 3e 59 c1 77 be 7c 7e bb be
       1.1020763 0.3267993 -0.2419485 -0.36619937
0001d0 82 d1 31 bc f0 78 eb 3e 83 20 0b 3f 59 cb ba be
       -0.010853173 0.45990705 0.54346484 -0.36483267
0001e0 73 d8 97 3f 43 34 7d bd 2f 3b 19 bf 1a 9f e1 3d
       1.186293 -0.06181742 -0.5985593 0.11016674
0001f0 4a 94 26 bf 71 12 3b bf a7 c8 d8 be 3f 5d ce bd
       -0.6507002 -0.73075014 -0.42340586 -0.10076379
000200 cf 0e 18 3f 2f ca fb bd ce 11 14 3f 14 d7 f1 3e
       0.59397596 -0.12294423 0.5783967 0.47234404
000210 78 25 33 3f 42 3a 80 b9 2e ad 9d 3e 74 2a 3b 3f
       0.6997905 -0.00024457468 0.30796188 0.73111653
000220 ca 4d 0c bd e9 0b 37 3f 8a a2 2c be a4 65 a8 be
       -0.034253873 0.7150255 -0.16858879 -0.32890046
000230 77 55 a1 be 07 91 dd 3e 2d 91 6c 3f f2 5d c4 be
       -0.31510517 0.4327471 0.9240902 -0.38352925
000240 8c 76 11 3f b4 9c 3d 3f ac 29 0c 3f d2 10 12 3f
       0.56821513 0.74067235 0.54751086 0.57056916
000250 0b 30 1e 3f f2 7e 00 3f 3a a7 13 3e d9 43 5c be
       0.6179206 0.50193703 0.1441926 -0.21510257
000260 58 51 af bd 4a ba 34 bd f1 14 3b bf 8f e2 c8 3e
       -0.08560437 -0.04412297 -0.7307883 0.3923535
000270 1c 9c 02 3f 1e 6e bd 3e 3b d8 39 be 6d 0c 96 be
       0.51019454 0.36998075 -0.18148892 -0.29306355
000280 cc 54 13 be 2b 99 9e 3e e9 fc ac 3e 43 55 d9 3d
       -0.14387816 0.30976233 0.33786705 0.106119655
000290 6a f2 25 bf 4b ff 90 3e 40 8d 6d 3f 43 fb 6b 3e
       -0.6482302 0.28319773 0.92793655 0.23045067
0002a0 55 53 03 3f 22 8b d6 bc 77 82 ba 3e fb 90 b6 3e
       0.5129903 -0.02618939 0.36427662 0.35657486
0002b0 48 39 e9 be d7 16 ad 3d 2a 9b 01 3e a8 46 c2 3e
       -0.45551515 0.08451622 0.12656847 0.3794453
0002c0 63 8d 0f 3d 85 b3 a8 3e 8b 9b 49 3e e8 ae d2 3e
       0.035046946 0.32949463 0.19688241 0.41149068
0002d0 60 bd ef be 21 a6 2f 3e a6 19 66 3e 7e 85 52 bd
       -0.4682417 0.17153217 0.22470722 -0.05139684
0002e0 46 f0 e3 be 3c c7 a3 3e ea f0 9a 3e 41 2f af be
       -0.44519252 0.3198794 0.30261928 -0.3421574
0002f0 b1 23 90 be 7f 63 ec 3d 67 05 07 3f 8b 40 2b 3f
       -0.2815223 0.11542415 0.5274262 0.6689536
000300 42 91 4b 3f 37 49 62 be 5f 03 cf be 0e 6f da bd
       0.7951852 -0.22098242 -0.4043226 -0.10665713
000310 16 e4 b7 be 36 92 b7 be 3d 99 07 3e 92 b0 d4 3d
       -0.35916203 -0.35853738 0.1324205 0.103852406
000320 05 f4 d0 3e d8 78 37 3f 91 2e 04 3f 9b ff b6 3e
       0.40811172 0.7166877 0.51633555 0.35741886
000330 20 02 42 3e be e9 5c be 91 fd 03 bf 83 81 bf 3e
       0.18946123 -0.2157354 -0.51558787 0.37403497
000340 84 b0 7b 3e 78 a8 18 3f e6 da 82 be 01 09 5c be
       0.24579054 0.5963206 -0.2555763 -0.2148781
000350 f2 f7 67 bd 67 ea 9c 3d f3 ac 13 be 3c 7c 36 be
       -0.056632943 0.07661896 -0.14421444 -0.17820829
000360 d1 78 22 3f 5c 83 9d bd 63 94 31 3f df 25 68 be
       0.634656 -0.076910704 0.69367045 -0.22670697
000370 46 2a ce 3e d9 e4 f0 3e 8f 63 3a 3f d1 06 19 be
       0.40266627 0.47049597 0.72808164 -0.14944007
000380 20 27 e6 3e ad ef 1a 3d 12 66 d4 be db 12 32 3e
       0.44951725 0.03782623 -0.41484123 0.17390005
000390 b1 0b b8 be 6a 1f e1 be 76 40 98 be 4b cc 08 3f
       -0.3594642 -0.4396928 -0.2973668 0.53436726
0003a0 82 1d d4 be da 95 1d be 2a 5d 46 3f 37 09 31 3f
       -0.41428763 -0.15389195 0.7748591 0.69154686
0003b0 4f c7 da 3c ba fe cd 3e a1 2d 92 bd be dd e6 3e
       0.026706366 0.40233403 -0.07137609 0.4509105
0003c0 d6 21 8d bd 1b f0 a0 be 44 c9 ca 3e 4a 28 1a 3f
       -0.06891219 -0.31433186 0.39606678 0.60217726
0003d0 40 22 28 3f fb bd 20 be cb cd f0 be 79 1a f1 be
       0.6567726 -0.15697472 -0.47032008 -0.4709051
0003e0 92 c5 9b 3d ba 34 f1 3e 96 6b 0f 3f 67 d9 6d be
       0.07606043 0.4711054 0.5602354 -0.23227464
0003f0 80 d5 60 3f e0 93 f1 3e 8c f1 a4 3e e3 d8 29 be
       0.87825775 0.47183132 0.32215536 -0.16586642

l1.bias f4 [8]
000000 cf 06 09 3f 37 28 51 3f e4 24 3b 3f 01 a4 53 3f
       0.53526014 0.8170199 0.73103166 0.82672125
000010 3b c6 f0 3e 27 e4 7b 3f 20 46 1c 3f 5b ca 5f 3f
       0.47026238 0.9839501 0.610445 0.87418145

l2.weight f4 [8, 8]
000000 73 2c 30 be f6 82 b5 be 8b 6d 88 be 45 b5 96 be
       -0.17204456 -0.35451478 -0.26646075 -0.29435173
000010 44 44 aa be cc 0c 89 3e 59 b0 19 be 17 68 0d be
       -0.33255208 0.26767576 -0.15008678 -0.13809238
000020 25 fd 94 3f 44 33 24 bf bf 48 d4 3f 42 eb 4e 3f
       1.1639754 -0.64140725 1.65847 0.80827725
000030 ea 72 b7 3f 96 bd 37 3d ac 50 92 3f 42 ca 35 bf
       1.4331944 0.044858538 1.1430869 -0.71011746
000040 c4 5f df 3c 99 c3 1a be 5b 05 0b be e5 23 b5 3d
       0.027267344 -0.15113677 -0.13576262 0.08844737
000050 40 c2 3c 3e 7d b0 83 be f6 eb 34 bd ff 45 17 be
       0.18433475 -0.25720587 -0.044170342 -0.14772795
000060 c6 00 97 3f e6 11 af bf a2 6b 57 3f 0a 3f 49 3f
       1.1797111 -1.3677337 0.8414861 0.78611815
000070 f3 ac 2e bf de 58 c5 3f 8c 17 30 bf 6c 05 aa 3e
       -0.6823265 1.5417745 -0.6878593 0.33207262
000080 fa ad 5d 3f 06 54 a7 3f 9f 38 37 3f f4 e0 85 bf
       0.8659359 1.3072517 0.7157077 -1.0459275
000090 d6 57 58 bf 0c 2b 95 3f 43 b0 1d be 1e f5 a7 3f
       -0.84509027 1.1653762 -0.1539927 1.3121679
0000a0 fb 06 82 bb 83 1e 96 3f d2 b6 06 bf c4 2a 99 3f
       -0.0039681173 1.1728061 -0.5262271 1.1966176
0000b0 af 20 0f bd c9 6e 98 3f a8 ca 4c 3f 74 26 96 bf
       -0.03494328 1.1908809 0.7999673 -1.1730485
0000c0 d6 f9 7d be f0 7c 91 3f eb 7b 38 bf fb 27 b8 3f
       -0.24802336 1.1366253 -0.72064084 1.4387201
0000d0 69 15 50 3f 31 4c 25 3e 3b 9d a4 3f 6b 71 91 bf
       0.8128267 0.16142346 1.2860483 -1.1362737
0000e0 2e 10 79 bf e5 88 a5 3f 13 59 5f 3f bb 39 96 3f
       -0.97290313 1.2932402 0.8724529 1.1736368
0000f0 22 2b 8f 3f a5 5c 34 bf 2f a4 b7 3f 94 18 db 3f
       1.1185038 -0.70453864 1.434698 1.7116876

l2.bias f4 [8]
000000 e5 ba 16 be 61 97 e7 bd 69 85 38 be 97 66 62 3f
       -0.14719732 -0.1130817 -0.18019642 0.8843779
000010 7e 25 46 3e 03 2c 06 3f 63 55 16 3f 75 2f 69 3f
       0.1935024 0.52410907 0.5872404 0.9108804

l3.weight f4 [9, 8]
000000 16 0d 13 3d fc 41 64 3c b7 af e8 3d 88 d5 a3 bf
       0.03590115 0.0139317475 0.1136164 -1.279954
000010 25 d4 04 c0 09 fe cd 3e dc b2 6b 3f 06 d3 2a 3e
       -2.0754483 0.40232876 0.9206979 0.16682062
000020 c7 5f 9a be dd de 9a bf c4 62 82 3d 3d 87 e2 bf
       -0.30151197 -1.2099262 0.06366494 -1.7697521
000030 ee 00 e3 3e 3d 48 b7 bf db e5 7b bf e1 b8 3c 3f
       0.44336647 -1.431892 -0.98397607 0.737196
000040 c1 d6 24 be 1f b2 a5 bf b2 e8 92 be d7 1b 5a 3e
       -0.16097547 -1.2944983 -0.28693157 0.21299683
000050 67 6e ef 3e cd 82 de 3e 35 47 1f 3f ba 68 a4 bf
       0.46763918 0.43459168 0.6221803 -1.284446
000060 4c 56 59 3d 7d c9 f3 3e af c8 b7 be 42 be 4c 3f
       0.053060815 0.4761466 -0.35895297 0.7997781
000070 77 3d 88 bd 09 9f 03 be 33 11 71 bf 1d 47 c7 bf
       -0.066523485 -0.12853636 -0.9416687 -1.5568577
000080 3f 26 9f 3e c1 bf 36 3f 65 fd 84 bd c9 88 5a bf
       0.31083867 0.71386343 -0.06493644 -0.8536497
000090 a2 90 90 bf 1b b8 36 bf e3 22 81 3e a4 a9 b2 3d
       -1.1294138 -0.7137467 0.2522193 0.08723763
0000a0 73 4c 51 3e 26 7a 77 3e c4 4c 78 3e ba 05 0d bc
       0.2043932 0.2416769 0.24248034 -0.008607322
0000b0 34 8d cb 3e fa 7b 39 bf d4 05 87 bf 49 08 5b be
       0.39756167 -0.724548 -1.0548654 -0.2138988
0000c0 10 f2 c7 3c 67 c8 b5 bf 8c 10 ba bd 1f 53 a8 bf
       0.024407417 -1.4201783 -0.09085187 -1.3150367
0000d0 8d 4f 82 be 7b 9a 4a 3e 68 36 e9 3e 2d 02 02 3f
       -0.25451317 0.19785492 0.4554932 0.5078457
0000e0 2a 63 a5 3e 29 24 11 c0 8d ca d1 3d 28 03 2c 3f
       0.3230222 -2.267832 0.102437116 0.67192316
0000f0 99 34 10 3e 22 dc 62 bf 93 0d 83 bf 40 b5 9d 3e
       0.14082564 -0.88617146 -1.0238518 0.30802345
000100 42 71 3c 3c 47 27 13 3f 95 83 b1 bc 7d 66 e8 3e
       0.011501612 0.5748181 -0.021669189 0.45390692
000110 0d 4e aa bf c8 27 62 3e 20 76 af 3e 79 f2 15 bf
       -1.3305069 0.22085488 0.3426981 -0.5857311

l3.bias f4 [9]
000000 c0 57 f0 3d 6e a4 8a be 00 67 71 3e d5 87 7a bd
       0.11735487 -0.27078575 0.23574448 -0.061164696
000010 b0 e7 05 bf 66 22 ce be 6b 2d aa 3e 7a ae 41 3f
       -0.5230665 -0.4026062 0.33237776 0.75656855
000020 d4 eb 8b be
       -0.2732836
